Assets/FinchSdk/SDK/FinchBase/Plugins/iOS/Resources.bundle/Contents/Resources/elbow_shift.tflite (tflite, 490048 bytes, 80 tensors)

Const f4 [1, 32, 1, 22]
000000 1d 02 11 be 7e 38 ed 3d 57 5a 70 be a1 a9 57 be
       -0.14160962 0.11583041 -0.23471962 -0.21060802
000010 1b 43 4a 3d 79 81 9e be 12 0e 46 bd d1 e0 87 bd
       0.049380403 -0.30958155 -0.048353262 -0.06634677
000020 9e 63 55 bd 12 37 fc bc c7 08 26 be 9a 41 39 bd
       -0.052096955 -0.030787978 -0.16214286 -0.04522858
000030 91 37 80 3f e2 c2 40 bf 5f dd 39 bf cf 19 67 be
       1.0016958 -0.7529737 -0.7260341 -0.22568439
000040 c0 cd 54 3f 5e 3c 16 be 9f 70 74 bd c0 a1 9a 3a
       0.8312645 -0.14671466 -0.059677716 0.0011797473
000050 cf 9f fc bd 68 30 07 3e d2 18 14 be 23 3c 1e be
       -0.123351686 0.1320206 -0.14462593 -0.15452628
000060 87 03 31 be 11 60 76 bc f3 ee c6 be d3 64 06 bc
       -0.17286502 -0.015037552 -0.3885418 -0.008202749
000070 cb c4 7c 3e 39 7a 36 3b 37 46 74 3e 16 2b 56 3c
       0.24684446 0.0027843846 0.2385491 0.013071796
000080 bb 80 9e be f9 dc 16 3d b6 72 2c 3f 0f 38 1e bf
       -0.3095759 0.03683183 0.67362535 -0.6180429
000090 d1 b0 1f bf f5 4c a8 bd 74 81 fc 3e c3 cf 07 be
       -0.62379175 -0.082178034 0.49317515 -0.13262849
0000a0 9f 9d 95 3d 5e 0c 2c 3d 39 3b 42 be 18 c4 1e 3e
       0.073054545 0.04200398 -0.18967904 0.15504491
0000b0 6b 5a 76 3d ab 68 52 3d 4a e6 f6 3c 8d 65 57 bd
       0.060144823 0.05136935 0.030139107 -0.05258708
0000c0 44 1d 54 3e 25 1f 56 bd 20 74 af be df 99 3f be
       0.20714289 -0.052275795 -0.34268284 -0.18711041
0000d0 a0 74 01 bf d5 a3 8c be a0 2b d2 3d cd d2 47 3e
       -0.5056858 -0.27468744 0.10262227 0.19514008
0000e0 f3 47 fb 3e be 1c d0 be c5 d2 cc be 7c a2 69 bd
       0.4907833 -0.4064693 -0.40004554 -0.057039723
0000f0 44 1f 7d 3e cb 77 09 be 88 b2 8d 3c d1 3a 84 3d
       0.24718958 -0.13424604 0.017297044 0.06456531
000100 fa fd 3c be 36 d8 23 3e 7a 49 43 be 6d 08 1a be
       -0.1845626 0.16000447 -0.19070998 -0.15042277
000110 76 e3 02 be 3d 57 ec bd 43 ad 21 3d a6 46 72 bd
       -0.12782082 -0.11540077 0.039471876 -0.059149407
000120 fa 24 c3 bd 97 21 17 bd a2 e6 7e bd 83 3f 7f 3d
       -0.09528537 -0.03689727 -0.062231667 0.06231643
000130 99 b8 69 be 4c d0 e6 bb a8 c2 dc 3e 42 78 af be
       -0.22824325 -0.007043874 0.4311726 -0.34271437
000140 f4 f4 8c be a5 89 23 3e 86 a4 e1 3d 98 65 9b 3c
       -0.27530634 0.15970476 0.110177085 0.018969342
000150 96 41 29 bd dc 60 de 3c 0a 21 5b be 62 87 20 3e
       -0.041322313 0.027145796 -0.21399322 0.15676644
000160 82 0f ad bd 80 b7 b2 3d 0c c5 e6 bd c6 9d af bd
       -0.084502235 0.08726406 -0.112680525 -0.08575015
000170 24 ee 94 3d af 82 e8 bd af ec bb bd 8d 3d 7f 3e
       0.07271984 -0.11353051 -0.09176003 0.24925824
000180 ae fe 0a be 18 56 91 3d 23 0d 12 3f 97 5c 73 bd
       -0.13573715 0.07096499 0.57051295 -0.059414472
000190 ce a7 77 3e e4 d0 b7 be 6a 72 f6 bd eb e3 4c 3e
       0.24185106 -0.35901558 -0.120335415 0.20008819
0001a0 f6 0e 74 be 5d ec 28 bd 63 98 58 bd b0 7a 0a 3d
       -0.23833832 -0.04124104 -0.052879702 0.03380841
0001b0 54 9f 2d be 4b d9 21 3e 6d a6 38 bd 3e 49 12 be
       -0.1695531 0.15805547 -0.04508059 -0.14285752
0001c0 59 36 1f bd ca 63 18 be 53 6a 97 bd ab 8c be bd
       -0.03887019 -0.14881817 -0.073933266 -0.09304174
0001d0 f8 d9 06 be 98 a2 e2 be 46 71 a1 bd 5c d7 6c 3e
       -0.13169086 -0.44264674 -0.07882933 0.23129028
0001e0 05 37 98 be ab 93 94 be 53 71 07 3e d8 28 58 be
       -0.29729477 -0.29018912 0.13226824 -0.2110933
0001f0 a4 ba 09 be 4c cd c9 3d eb 4b d3 be 75 a0 a9 bc
       -0.13450104 0.098536104 -0.41268858 -0.020706395
000200 d9 06 81 3d 80 1b a1 3a ee d0 44 be 96 fd 1d 3e
       0.06300134 0.0012291521 -0.19220325 0.15428767
000210 30 cb 25 3c 7b 8d 83 bd 45 bb 4f bc 75 81 d9 bd
       0.010119244 -0.0642347 -0.012678926 -0.10620395
000220 e1 54 85 be 4b d8 27 be d5 da 97 be 6d 2f 9e be
       -0.2604132 -0.16391103 -0.29659143 -0.30895558
000230 e8 41 c3 be c3 db 94 bc 30 c5 92 3d 57 fb 88 3d
       -0.3813622 -0.018171197 0.07166517 0.06688564
000240 1d 72 88 bd 29 4c 28 be 76 7d 02 3d fb 46 a4 3e
       -0.066623904 -0.16435303 0.03185793 0.32085404
000250 b3 4a e9 be 92 43 56 be 83 5e 93 3d b0 60 81 bd
       -0.45564803 -0.20924214 0.07195761 -0.0631727
000260 d2 33 35 be bb 81 1b 3e 1d 5f 4a be 9b 21 0e 3e
       -0.17695549 0.15186207 -0.19762845 0.13880007
000270 35 79 3e be 91 0e cc bc 2a 2a db 3d 7a 30 15 3e
       -0.18600924 -0.02490929 0.107014015 0.14569274
000280 c0 74 e7 3e 6a 0b af 3e 9f 62 f1 3e c1 80 47 be
       0.4520626 0.34188396 0.47145554 -0.1948271
000290 e4 17 dd be 4c c7 ca 3d f2 f9 18 bd 5a 83 5a 3d
       -0.4318229 0.09901294 -0.03734774 0.053347923
0002a0 8d 4c 55 bc bd 51 1d 3e 6d 62 5c be fb d6 e3 bd
       -0.013018739 0.15363212 -0.21521921 -0.11124989
0002b0 ba 04 83 bd 28 64 ea 3c f9 8e d6 bd 0a 61 11 3e
       -0.06397386 0.028612211 -0.104764886 0.14197174
0002c0 83 ea e4 bd 19 72 2c bd b9 bb 7e bd b5 b6 d3 bd
       -0.11177542 -0.042101 -0.062190745 -0.10337583
0002d0 14 59 1a be 9b d3 22 be 0d 54 6c be 4a 1a 83 be
       -0.15073043 -0.15901034 -0.23078938 -0.25605994
0002e0 69 ae 16 be c2 d3 8c 3c 1d 17 2e 3e ab 38 e0 bd
       -0.1471497 0.017190818 0.17001005 -0.109483086
0002f0 66 a0 07 be bf 1b b3 3d bc e2 e4 3d c6 a2 69 3e
       -0.13244781 0.087455265 0.11176059 0.22816
000300 fe d4 b6 be 37 d4 8f be 00 0a 91 3a bc e8 8c 3c
       -0.35709375 -0.28091595 0.0011065602 0.01720082
000310 5e 70 fd bd 25 81 1b 3e 57 2f 94 3c 6a 0a d7 bd
       -0.12374948 0.15185983 0.01808898 -0.10500033
000320 e1 1e d3 bd 2f ac b1 bd 34 31 6c 3d 32 bf 4f bd
       -0.10308624 -0.086754195 0.05766411 -0.050719447
000330 b3 c0 e4 3e c5 61 b0 be 34 d6 b5 3e 7e b9 f8 3c
       0.44678268 -0.34449592 0.35514987 0.030361887
000340 3e d6 96 3e a6 c8 5d 3d c5 48 64 be c0 0e 3f 3e
       0.2946033 0.05414643 -0.22293384 0.1865797
000350 e3 ef 49 3e cf d8 62 3e 9f 56 c6 be b1 3d 81 be
       0.19720416 0.22153018 -0.38737962 -0.2524238
000360 0f 80 af bd 4f ac 92 3d fc 55 17 be 4b 0a fd 3d
       -0.08569347 0.071617715 -0.14778894 0.12355479
000370 1f 2c 35 be 77 99 b8 bc 7f dc 03 be 17 a5 02 be
       -0.17692612 -0.022534115 -0.12877081 -0.1275829
000380 6a e3 03 3e bd 48 ff bd 04 67 b3 be f1 69 16 bf
       0.1287972 -0.124650456 -0.35039532 -0.58755404
000390 e3 58 8b be 10 de 6b 3b 7b 1d b8 be 8b d0 f1 3c
       -0.27216253 0.0035990514 -0.35959992 0.029518386
0003a0 88 c7 a0 be 66 bc 68 3e c7 a7 3c 3e 86 5a 95 3d
       -0.3140223 0.22728118 0.18423377 0.072926566
0003b0 f6 86 df be e8 c6 23 be 6a 74 31 3d 2b ba 87 bd
       -0.43657655 -0.15993845 0.04332391 -0.066273056
0003c0 21 76 26 be 73 01 21 3e f5 47 e8 bd c8 cc f3 3b
       -0.16256 0.15723209 -0.1134185 0.0074401833
0003d0 a1 aa 30 be 00 17 ae bd f0 d7 81 be 0d 1a 9c bc
       -0.1725259 -0.08500481 -0.2536006 -0.01905539
0003e0 2d c7 96 be a6 1c 1b 3f fa e0 a0 be d1 b6 17 bd
       -0.29448834 0.6059059 -0.31421643 -0.03703958
0003f0 51 d5 94 be 29 20 6c 3d 45 0e bb be af 13 eb 3d
       -0.29068998 0.057647858 -0.36534324 0.11478364

Const_1 f4 [32, 1, 1, 22]
000000 53 4a 6d be ca a7 8d 3d e7 e2 01 3e e7 8f 1b be
       -0.23172884 0.06916769 0.12684213 -0.15191613
000010 e6 ae be bd 66 33 12 3e 76 de 62 3f 7a c1 a6 be
       -0.09310703 0.1427742 0.886207 -0.32569486
000020 86 59 3b bf 9b f3 31 bf a8 c2 c7 bd 4c 38 0e 3c
       -0.73183477 -0.6951234 -0.097539246 0.008680414
000030 35 e3 20 3f 4b f0 85 be f7 1e 92 bf 04 a0 7b 3f
       0.6284669 -0.2615989 -1.14157 0.9829104
000040 b7 38 46 3d e1 3d 03 bf 19 92 96 3e e0 28 db 3d
       0.04839393 -0.51266295 0.2940834 0.10701156
000050 93 9d 0a 3e 51 16 ef bd 96 aa 5e be 3b 19 8e be
       0.13536672 -0.116741784 -0.21744761 -0.27753624
000060 35 49 c0 39 f6 e8 94 3d 92 bb e2 3d 20 42 9f bc
       0.00036675637 0.07270996 0.110709324 -0.01944071
000070 df be bc be 93 83 7d 3e 3e b0 38 bf 54 67 27 3f
       -0.36864373 0.24757223 -0.72143924 0.6539204
000080 9f 70 48 bf 0b 65 20 bf 32 13 a6 bf 08 22 c7 3e
       -0.78296846 -0.6265418 -1.2974608 0.3889315
000090 45 1c 05 3e 05 b7 57 bf 98 3d 0e 3f 36 a8 b9 bc
       0.12999065 -0.8426364 0.55562735 -0.022663217
0000a0 da 0d 22 3e 8c 81 e2 bd 95 5e 63 3d 34 c7 82 bd
       0.15825596 -0.11059865 0.055510122 -0.06385651
0000b0 b4 11 c7 3d 48 4f bc be 5e fc 94 3d 6d 9f 49 be
       0.097201735 -0.36779237 0.07274698 -0.19689722
0000c0 ce 0c 37 3c 94 0d ea be a9 34 cb 3e 97 9b 67 be
       0.0111724865 -0.45713484 0.39688614 -0.22617947
0000d0 0b 84 91 bf 45 d0 00 bf d5 6e 6f be 04 6f fa 3c
       -1.1368421 -0.50317794 -0.23382123 0.030570515
0000e0 0b 6a 7e 3e c5 ee a3 3e db 1c d7 bf 4b 62 b5 3e
       0.2484514 0.32018104 -1.6805681 0.35426554
0000f0 11 30 e8 bc a4 bd ba 3f 48 c1 83 be 16 5e 69 be
       -0.028343232 1.4589124 -0.257334 -0.22789797
000100 2b 93 ac bd 02 18 65 3e 45 72 14 3c 46 f6 5d bb
       -0.084265076 0.2237244 0.009060447 -0.0033868714
000110 4f fb f9 bc 4a eb 51 3c 29 8a 0b 3d 51 b9 11 3c
       -0.030515341 0.012812445 0.034067307 0.0088942805
000120 cd bc 47 3c c1 6c b7 3e 08 3a ea 3d aa 8b 40 39
       0.01219101 0.3582516 0.1143685 0.00018362576
000130 c4 38 99 be a1 8b 7a 3d b9 8c 1a 3d 7f 0e 92 3f
       -0.2992612 0.061168317 0.03773186 1.1410674
000140 1d d8 e3 3c f9 98 fd 3c 16 6e ee 3f aa f3 f4 3c
       0.027813012 0.030956732 1.8627346 0.029901344
000150 74 8a 9d 3d d0 4f 1c 3e c9 2f 81 be 63 e7 d8 3d
       0.076924235 0.15264821 -0.2523177 0.105910085
000160 75 6a 86 be a1 43 e8 3e d1 85 1f be 4e ba 68 be
       -0.26253095 0.45364097 -0.1557839 -0.2272732
000170 7d a3 aa be f8 f6 d9 bd 20 d2 01 3e dd 8b 0a be
       -0.33327857 -0.10642809 0.12677813 -0.13529916
000180 de 12 74 3e 82 2e ef bd bc 25 07 3d 03 b5 44 bd
       0.23835322 -0.116787925 0.03299497 -0.04802419
000190 3b b2 5b bf 4a cb 83 3e 47 49 b9 3e 78 5e c5 3e
       -0.85818833 0.25741035 0.3618872 0.38548636
0001a0 09 c5 91 bf 3f 7d fc 3d d0 25 a7 be 18 cd 7a bd
       -1.1388255 0.12328576 -0.32646036 -0.06123075
0001b0 1a 38 45 c0 0e 24 32 40 cd 21 cf bd 68 f7 c2 be
       -3.0815492 2.7834506 -0.10113869 -0.3807938
0001c0 eb 45 2d be bc 2c 06 3e 19 9d c2 bd f8 ed 11 be
       -0.16921203 0.13103002 -0.0950262 -0.14250934
0001d0 2c 2c 6c 3f 03 56 71 be e2 e3 85 3f a1 97 8d 3d
       0.922549 -0.23567967 1.0460169 0.069136865
0001e0 f0 80 20 be c5 49 40 3f d9 5c e3 bf 3e da 9b be
       -0.15674186 0.75112563 -1.776271 -0.30439943
0001f0 7a 97 0e 3c e3 f9 01 bd 55 2c c8 3e 08 51 71 bf
       0.008703107 -0.03173245 0.39096323 -0.9426427
000200 fe 1f aa be db 8d 9c 3e 69 35 e8 3d 02 d1 aa be
       -0.33227533 0.30576977 0.11338312 -0.33362585
000210 27 68 24 be b4 90 94 3d 60 94 c1 3d 48 90 f5 bc
       -0.16055356 0.072541624 0.094521284 -0.029976025
000220 9a af c1 3d af 9e 33 3e be 03 dc bd cc a6 ea bd
       0.094573215 0.17541002 -0.10742901 -0.11457595
000230 16 01 e7 3d 06 8f c5 3b b3 2e f7 3d 24 e7 30 be
       0.11279504 0.0060290126 0.12069454 -0.17275673
000240 af b8 af bf 17 b3 91 be 0f d6 2e bf dd c3 46 bf
       -1.3728236 -0.28456947 -0.6829538 -0.77642614
000250 a4 97 54 3d 3f 50 e9 3e 30 38 9f bc 83 69 90 3e
       0.05190243 0.45569035 -0.019435972 0.282055
000260 34 8c 16 3e 1f ff 3f bd 3b b2 89 bf 01 9f 6d 3f
       0.14701921 -0.04687416 -1.0757517 0.92820746
000270 8f a3 b7 3e d2 e4 2b 3f 78 8f 6b bf 84 b4 94 3e
       0.35866973 0.6714603 -0.9201579 0.29043972
000280 b5 0d 4b 3b 9c bb f8 be 50 9d 23 3e 5a b4 2d be
       0.0030983512 -0.48580635 0.15977979 -0.1696333
000290 29 02 cf be 50 c4 0e 3d dd 8c 48 be 26 c8 06 bf
       -0.40431336 0.034855187 -0.19584985 -0.5264915
0002a0 c8 9f e8 bd e0 5f 6a 3a 4b 37 3e be c4 b4 28 bd
       -0.11358601 0.0008940678 -0.1857578 -0.041188017
0002b0 1b 94 95 be 46 93 24 3e 6c e4 58 bf 8f 66 80 3f
       -0.29214558 0.16071805 -0.84723544 1.0031298
0002c0 5d db 68 bd 0b 07 5c 3e 14 c4 b7 3c 6c e9 24 be
       -0.056849826 0.21487062 0.022432365 -0.16104668
0002d0 7c 1e 12 3e 7e 63 b4 be 48 71 47 3e 10 a8 76 3d
       0.14269441 -0.35232157 0.19476807 0.06021887
0002e0 ea 84 1b 3e 4b ae 3b be ef 27 06 3e a4 f0 88 3e
       0.15187421 -0.18328206 0.13101171 0.26746094
0002f0 6b 11 8d 3e 69 d2 82 be 5f 0c d9 3f db 40 89 3f
       0.2755235 -0.25551155 1.69569 1.0722917
000300 c0 33 2d 3e ad 29 9a 3d 4b 7e 8e be a8 16 6c bd
       0.16914272 0.0752748 -0.2783073 -0.057638794
000310 c9 8f fd 3c 2d 42 54 be 4e 8c 00 bf 3a 7f ea 3e
       0.030952351 -0.20728369 -0.5021409 0.4580019
000320 aa b7 8f be 8c 13 9f 3d 8e 5f b6 3d ef a6 e2 3c
       -0.28069812 0.077674 0.08904944 0.02766749
000330 e3 df 99 be 76 35 7e 3e 8d f6 7c 3e c0 48 55 3e
       -0.30053625 0.24825081 0.24703427 0.20828533
000340 9c bc 98 be 2a ca e0 3d c4 08 36 bf 87 75 94 bf
       -0.29831398 0.1097606 -0.71107125 -1.1598366
000350 86 d0 a2 3d 56 29 05 bf 84 99 97 bd 08 69 b8 3d
       0.07949929 -0.520162 -0.07402328 0.09004408
000360 c0 85 b4 bd 8b 60 78 be 4f b3 81 bf b7 34 5e 3f
       -0.08814573 -0.24255578 -1.0132846 0.86799186
000370 39 32 02 bf fe 1e a8 be 4d 3e 86 3e a3 7a 8e be
       -0.50857884 -0.32836145 0.26219407 -0.2782794
000380 67 b1 ad 3e 6e 35 db 3d e8 cd 1f 3e 74 68 4a bb
       0.3392441 0.1070355 0.15605891 -0.0030885013
000390 4c 13 76 3d b7 c3 17 3d 2e 39 b8 3e b3 89 e6 bb
       0.060076997 0.037051883 0.35981125 -0.007035458
0003a0 0a f1 6c bf ec c1 00 bf e4 f4 39 be c4 1a 05 3e
       -0.92555296 -0.502959 -0.18159825 0.12998492
0003b0 8e 61 84 3f 0b 62 bb bc 9b a0 11 be 1b a3 a3 be
       1.0342271 -0.022873899 -0.14221422 -0.31960377
0003c0 1d 97 bb be 88 56 03 3f 2c 11 09 bf 30 83 6a 3f
       -0.36638728 0.5130391 -0.5354183 0.91606426
0003d0 7d 43 40 be 81 10 ce be dc 50 1b bf 1a b1 d0 bf
       -0.18775745 -0.40246966 -0.60670257 -1.6304047
0003e0 6f 9b 96 3e 06 9d e2 3e ed c9 8c be 47 e2 be bc
       0.2941546 0.44260424 -0.27497807 -0.023301257
0003f0 be cd b2 be 6e 4b d0 bd a7 00 18 be 36 89 d0 be
       -0.34922594 -0.10170637 -0.14843999 -0.40729684

Const_15 f4 [256]
000000 c7 fa 3b c0 ed 65 81 bf ec b8 81 bf 0f cb 88 bf
       -2.9371812 -1.010923 -1.0134559 -1.0686969
000010 03 8b 52 bf 07 28 3f c0 6c 65 36 bf 10 85 be be
       -0.82243365 -2.986818 -0.7124851 -0.37210894
000020 b3 85 b0 bf e8 9b 54 c0 bb d4 89 bf fa 0d 1d c0
       -1.3790802 -3.3220158 -1.0768045 -2.453978
000030 21 d0 30 bf 3d 1f d3 bf 85 8e 44 c0 a7 9f c4 bf
       -0.6906758 -1.6493908 -3.0711987 -1.5361222
000040 e7 89 b8 bf 9a 43 3a be c9 22 8d c0 60 6a d2 bf
       -1.4417084 -0.1818985 -4.410496 -1.6438713
000050 99 13 41 bf 95 42 66 bf 82 51 cd be 6b 09 3a c0
       -0.7542053 -0.89945346 -0.40101248 -2.9068248
000060 0d db c2 bf 73 e1 a2 3d 49 ff a0 bf 1a d8 05 c0
       -1.5223099 0.07953157 -1.2577907 -2.0913148
000070 ee fd dd bf 64 4c a8 bf e7 7c 62 bf 5c 2b cd bf
       -1.7343118 -1.3148313 -0.88471836 -1.6028857
000080 2b 99 0c c0 aa cf 31 bf bb 17 01 c0 92 c7 f4 bf
       -2.1968486 -0.69457495 -2.0170734 -1.9123404
000090 df a3 e3 bf 33 c2 d2 bf 49 5f 90 bf 3d e5 6a bf
       -1.7784384 -1.6465515 -1.1279079 -0.9175604
0000a0 82 da b5 bf 36 34 c6 bf 38 6a 06 c0 5c 01 7d bf
       -1.4207308 -1.5484684 -2.100233 -0.988302
0000b0 8e af 69 bf 14 cb 30 bf 87 10 98 bf dd f6 18 c0
       -0.912835 -0.6905987 -1.1880044 -2.3900673
0000c0 db 4e 91 be 54 f2 80 bf f1 c4 bb be 7b 1b 14 c0
       -0.28380474 -1.0073953 -0.36673692 -2.3141773
0000d0 3a 12 50 bd b4 c5 a0 bf e2 3c da bf e0 46 2a bf
       -0.050798632 -1.2560334 -1.704983 -0.66514397
0000e0 ac 49 17 c0 3b 19 2e c0 fa 4c aa be 27 e4 ef be
       -2.3638716 -2.72029 -0.33261853 -0.46853754
0000f0 ac a7 1b c0 6c d3 21 c0 36 95 e4 bf d7 f3 70 c0
       -2.4321089 -2.5285292 -1.7858036 -3.7648828
000100 b1 53 23 40 5b 82 43 3e 7c 81 8b bf 71 fc 15 3f
       2.551983 0.19092695 -1.089889 0.5858832
000110 c7 98 8e 3e 6f 46 c3 3f ba 3a 19 bf e7 65 28 bf
       0.27850935 1.525587 -0.59855235 -0.6578049
000120 21 0a cd bf 26 9b 4b 40 9d b5 98 3f 69 d3 ef 3f
       -1.6018716 3.1813445 1.1930424 1.8736392
000130 30 95 44 bf 32 05 87 3f 27 16 58 40 96 b3 13 bf
       -0.7679014 1.054846 3.376352 -0.576959
000140 77 59 0d 40 db 8d a1 bf ca 94 65 40 e2 e0 d6 3f
       2.2085855 -1.2621416 3.5872064 1.6787379
000150 a8 8e b7 bf 5d af 24 3d 3d c5 07 bf 53 97 58 40
       -1.434041 0.040206302 -0.53035337 3.384236
000160 39 c8 0c 40 52 ec 1b bf d7 d1 3a 3f 36 9a 21 40
       2.1997206 -0.6090747 0.7297644 2.5250373
000170 de d5 13 40 e6 0a 28 40 13 ae 06 be aa 66 21 40
       2.3099284 2.6256652 -0.13152342 2.521891
000180 eb 23 2d 40 ee 3a 23 bf 26 01 24 40 05 27 46 3f
       2.7053173 -0.63761795 2.56257 0.7740329
000190 ec a0 0b 40 60 06 00 40 0b ac a6 bf 80 83 52 bf
       2.181697 2.000389 -1.3021253 -0.82231903
0001a0 7f b5 05 40 7f 06 76 be 61 41 fb 3f c4 ce 99 bf
       2.0892026 -0.24025916 1.9629327 -1.2016225
0001b0 d0 7f 21 3f 1b c8 16 bf 40 9b ed be 5d 40 2f 40
       0.6308565 -0.58899087 -0.4640751 2.7383034
0001c0 98 0a d1 3e 96 db 03 bf 9d f9 9e bf 3f ad 2f 40
       0.40828395 -0.51506937 -1.2419926 2.744949
0001d0 36 62 d7 bf b5 1d b9 3e 5d cb ea 3e f1 df dd 3e
       -1.6826847 0.36155477 0.4585828 0.43334916
0001e0 dd 94 17 40 54 72 81 40 88 db 86 bf 4f a0 1c bf
       2.368461 4.045206 -1.0535746 -0.6118211
0001f0 a2 35 23 40 a2 9f 3c 40 b7 9e ad 3f 8f 5d 59 40
       2.5501485 2.9472432 1.3564061 3.3963354
000200 61 ae 66 3b bf b4 25 3d e6 34 0a bd ec 79 e9 3d
       0.0035199153 0.040455576 -0.033741854 0.11400208
000210 be c9 85 3e bb 42 98 bd 83 e5 0b 3e e6 a6 4c be
       0.2613048 -0.07434603 0.1366177 -0.19985542
000220 03 10 70 3d 06 79 e1 3d 20 d6 b8 bd c8 66 f0 3d
       0.05860902 0.110094115 -0.09025216 0.11738354
000230 16 22 91 3c ac 89 c4 bc 28 4b 8e 3d 2e a8 36 3e
       0.017716449 -0.023991428 0.06947929 0.17837593
000240 67 d1 b6 3d 91 1f c7 bd fa e5 81 bc 10 a7 a6 3d
       0.08926659 -0.09722818 -0.015856732 0.081373334
000250 74 f7 03 be e2 39 e5 3d 85 6b 3f 3d 58 63 6e 3d
       -0.12887365 0.11192681 0.046733398 0.05820021
000260 a5 55 24 bd 8a a0 19 be 89 7d d7 bb 73 f9 0c 3c
       -0.04012074 -0.15002647 -0.0065762443 0.008604395
000270 8e e9 43 bb b8 f2 9c 3c 6a 69 17 be 4d 6e 19 3c
       -0.0029893848 0.019158706 -0.14786306 0.009364677
000280 0b c1 15 3d fd 7b 8b bc 04 ef 16 3d d4 64 6e bd
       0.036561053 -0.017026896 0.036849037 -0.058201626
000290 32 41 64 3d fe 08 30 be dd ea bf bd ac b1 9e bd
       0.055726238 -0.1719093 -0.093709685 -0.07748732
0002a0 c8 d8 17 bd 79 b9 e4 bd b6 06 1a 3e 97 28 c1 3c
       -0.037071973 -0.111681886 0.15041623 0.023578925
0002b0 8f 9d c7 3d b6 14 d4 bd b8 a3 fc bd ee b6 41 3c
       0.09746849 -0.10355513 -0.123359144 0.011823399
0002c0 b8 4d 19 3d fe a1 22 3c 95 cb 77 be a9 db 93 bd
       0.037427634 0.009926317 -0.24198754 -0.07219631
0002d0 f0 75 90 3e 06 96 05 3c 14 9e b0 bc 70 4f c1 3c
       0.2821498 0.008153444 -0.021559753 0.023597449
0002e0 cd d0 46 be f5 18 96 3d 34 90 06 3e 51 13 cf 3d
       -0.19415589 0.07328979 0.13140947 0.10111106
0002f0 e7 49 6d bd e8 e8 e1 3c 97 1d 24 be 7e bd 82 bd
       -0.057931807 0.027576879 -0.16026913 -0.06383799
000300 29 fb 9c bf 3c 2b ac bf 68 09 86 bf 4f 5b 11 c0
       -1.2264148 -1.3450694 -1.047162 -2.271198
000310 fe 18 09 c0 43 3b 6c bf ac 27 bb bf 50 4c 0d c0
       -2.1421504 -0.92277926 -1.4621482 -2.2077827
000320 38 27 74 bf 53 04 9e bf 64 5c 09 c0 2c a2 8f bf
       -0.95372343 -1.234507 -2.146264 -1.1221366
000330 95 15 60 bf 1e 67 b7 bf e1 aa ff bf 9c 79 a2 bf
       -0.8753293 -1.4328344 -1.9974023 -1.2693362
000340 a2 74 0b c0 da 66 36 bf 30 ed 45 bf b8 35 d0 bf
       -2.1789937 -0.7125069 -0.77315044 -1.6266394
000350 7b df 67 bf 12 c7 c2 bf ad 5e b9 bf cc 9f fa bf
       -0.9057538 -1.5217001 -1.4482018 -1.9580016
000360 00 35 06 c0 28 44 20 c0 80 d2 e0 bf 35 6c 0f c0
       -2.0969849 -2.50416 -1.756424 -2.2409794
000370 1c cb ef bf 74 2f 3a c0 98 76 d1 bf a4 70 e1 bf
       -1.8733859 -2.9091463 -1.6364317 -1.76125
000380 f4 85 b7 bf bd 83 a4 bf 1b ee 26 c0 55 ac ab bf
       -1.4337754 -1.2852703 -2.6082828 -1.3411967
000390 6c 45 da bf cd 5c 9a bf 41 34 9f bf d0 d4 a5 bf
       -1.7052436 -1.205957 -1.2437822 -1.295557
0003a0 59 da 10 c0 3a 6b 0f be 6a f6 08 c0 3e cb 9b bf
       -2.263327 -0.14005747 -2.14004 -1.21714
0003b0 bb ec ff bf 67 77 a1 bf e4 b3 ae bf e7 04 be bf
       -1.999412 -1.2614564 -1.3648648 -1.4845246
0003c0 02 b0 0b c0 83 62 88 bf 5a 24 c6 bf 0b 03 f7 bf
       -2.1826177 -1.0655063 -1.5479844 -1.9297804
0003d0 06 ea b1 bf 44 f3 94 bf 1d af ed bf 77 81 e6 bf
       -1.3899543 -1.1636739 -1.8569065 -1.800826
0003e0 d2 0f a3 bf fe be 8b bf 47 7e f3 bf 0d 6f 9d bf
       -1.2739203 -1.0917661 -1.9022912 -1.2299515
0003f0 af 8e b8 bf fb 06 e7 bf 4b 96 e4 bf 6b 8f 36 bf
       -1.4418544 -1.8049005 -1.7858366 -0.7131259

Const_16 f4 [1, 16, 1, 22]
000000 59 bf 1d 3f e2 7d 85 3e 89 59 e7 3e 72 eb 2f be
       0.616201 0.26072603 0.45185497 -0.17179659
000010 e3 bc cd bd 69 a3 ab bd a0 33 8c 3d 77 22 26 bd
       -0.10045793 -0.083807774 0.06845784 -0.040560212
000020 81 9c 07 3e d5 47 ce 3e 9a d7 0e 3f f3 1b b1 be
       0.13243295 0.40289178 0.5579773 -0.34591636
000030 7e 26 6c 3e ed fb 4d 3e 24 d1 2b 3f 28 83 24 3f
       0.23061559 0.20115633 0.67116 0.6426263
000040 31 5e 89 3f 0f be a8 bd 4a ed ec 3d 40 f4 af 3d
       1.073187 -0.08239376 0.11568697 0.08591509
000050 e1 e2 0e be 49 78 70 bd 63 fc 15 be fa ac 10 3e
       -0.13953735 -0.058708463 -0.14647059 0.14128485
000060 da 86 40 bd d3 84 d5 3d d5 d4 1e be 7c df 18 bd
       -0.047003604 0.10425725 -0.15510876 -0.037322506
000070 86 9f 09 be b7 e1 c6 be 5f 53 8a bc f4 5b 2e bd
       -0.1343976 -0.38844082 -0.016885458 -0.042568162
000080 bd 16 e7 bd 2c b0 17 3d ae ef 38 3e 31 b0 84 3e
       -0.11283634 0.037033245 0.1806018 0.25915673
000090 86 29 03 3f 0e 82 ce 3e b3 3b 1d 3f af 33 1e 3d
       0.51235235 0.403336 0.6141922 0.038623508
0000a0 e1 83 d5 bd ec 72 fa 3d 31 92 13 be 65 70 71 bd
       -0.104255445 0.12228951 -0.14411236 -0.05894508
0000b0 5d f9 23 be ee 51 5c 3e a2 ce 45 be bb ad 14 be
       -0.16013093 0.21515629 -0.19317105 -0.14519398
0000c0 e3 d7 2d be 4f 2f 25 bd 1a 5f 1a bd 07 c4 3c 3e
       -0.16976885 -0.04032832 -0.037688352 0.18434153
0000d0 91 cb b7 bd b1 61 be bd 2a ad 6e be 1f 22 a2 3d
       -0.08974374 -0.09295977 -0.23308244 0.07916664
0000e0 61 cb 82 3e af 7d 1c 3e cd 8d b0 3e 13 8c 8f 3e
       0.2554579 0.1528232 0.34483185 0.28036556
0000f0 85 1b 19 3f 28 1e dd bd e1 78 f9 bd ab 58 de bd
       0.59807616 -0.107967675 -0.12181259 -0.10856756
000100 d1 51 04 be 10 ed 4f bd ed b1 cc 3c b9 70 23 bd
       -0.12921835 -0.05076319 0.024987185 -0.039902423
000110 48 82 f9 bd de ab d1 3d 90 a7 04 be 6f 04 cc bc
       -0.12183052 0.10237859 -0.12954545 -0.024904458
000120 e3 d6 ad be 14 67 b5 3e c4 c5 a3 be 0e da 4f be
       -0.33953008 0.35430205 -0.3198682 -0.20298025
000130 0c 65 29 bd ef 18 f1 3d da 12 84 3e da b6 89 3e
       -0.04135613 0.11772334 0.25795633 0.26897317
000140 b6 3f bf 3e 99 d0 9c 3e 92 e1 c4 3e a5 2c 75 3d
       0.37353295 0.30627897 0.38453346 0.05985703
000150 50 7f d6 bd a8 c0 85 3d 93 3f dc bd 6b 92 0e bd
       -0.10473502 0.06530887 -0.10754313 -0.034807604
000160 2d db 00 3e 99 97 a7 3e 68 a0 92 3e 76 a7 a9 3d
       0.12583609 0.32732847 0.28638005 0.08283894
000170 8f e0 4d be 30 74 19 3e db 9e b5 be 1b 40 03 3f
       -0.20105194 0.14985728 -0.3547276 0.5126969
000180 3a 42 db be 9a 50 99 3e d6 23 c0 3e a8 30 60 be
       -0.42823964 0.29944307 0.3752734 -0.21893561
000190 26 69 d0 3d e8 46 2d 3e b5 20 9e 3e 17 10 b7 3e
       0.101763055 0.1692158 0.30884328 0.35754463
0001a0 31 bd e4 3d 09 49 3f 3c d8 e5 1e 3d 74 06 e4 3d
       0.11168898 0.011675128 0.038793415 0.11134043
0001b0 6c 99 b0 bd 81 28 0b 3c 5b a2 b2 3e b1 ba 2a 3e
       -0.08623013 0.008493544 0.34889492 0.1667278
0001c0 09 f2 7d 3e 03 63 4f bd c7 63 52 be ab 22 1d be
       0.2479936 -0.050631534 -0.20545875 -0.15345256
0001d0 02 68 86 be 11 b3 12 3e ae 48 7b be 1d 02 9f 3e
       -0.26251227 0.14326121 -0.24539444 0.310563
0001e0 50 22 82 3c 28 b9 8b be c7 57 0a 3e 15 f3 54 3e
       0.015885502 -0.272897 0.13510047 0.20795853
0001f0 9f d9 92 3e c6 35 10 3e 92 31 58 3e e8 ac c5 bd
       0.28681657 0.14083013 0.2111266 -0.0965212
000200 3f e6 84 bd 3e 79 c4 3d 8f 59 46 be d2 d9 48 3d
       -0.064892285 0.095934376 -0.19370101 0.049035855
000210 d2 94 15 be fb 0a 44 3e a2 7c 01 be 78 5d 66 bb
       -0.14607552 0.19144814 -0.126452 -0.0035150927
000220 70 61 0a be e0 38 bf 3b a5 32 b8 be 08 75 ec 3e
       -0.13513732 0.0058356375 -0.3597614 0.46183038
000230 40 19 00 bf ff b7 3f bd b5 9a 51 be ab 72 8a bb
       -0.5003853 -0.04680633 -0.20469172 -0.0042250953
000240 78 d4 ca bc 23 38 1c 3e 21 47 a9 3d 12 f2 17 3e
       -0.024759516 0.1525579 0.0826552 0.14838436
000250 61 c6 4d 3d 53 ae 21 bc dc 21 8c 3d ea 1b b7 3d
       0.050238017 -0.009868222 0.06842396 0.08940871
000260 e6 1c 62 be ee 98 14 3d 4a a5 ad bd 01 0e f0 3d
       -0.22081336 0.036278658 -0.08478792 0.11721421
000270 68 9b 50 be 67 3d a4 3d 6c b7 04 be f6 32 64 3e
       -0.20371783 0.08019524 -0.12960595 0.22285065
000280 d3 12 5f 3f 4a 5f 16 bf 27 7e 2d 3f ef 6c f2 bd
       0.871381 -0.5873915 0.6777062 -0.11837184
000290 0e 9b 91 3e 09 f9 40 3d 86 6c d0 3d c6 1b 50 3e
       0.2843861 0.0471125 0.10176949 0.20323095
0002a0 06 02 bd 3d 97 37 3e 3e 63 66 a7 3e 27 af 42 3c
       0.092289016 0.18575893 0.32695302 0.01188258
0002b0 3a fe af bd 14 b9 9a bd 65 3a 25 be 8c 0f 9f 3c
       -0.08593412 -0.07554832 -0.16135557 0.019416593
0002c0 9f 18 34 bd a8 9f 6c 3e 8e c1 c9 3c 7a e5 9f bd
       -0.043968793 0.23107779 0.024628427 -0.07807441
0002d0 66 e2 78 be 4a 6a 53 be 0b 20 18 bf 33 a2 44 3f
       -0.24305114 -0.20646015 -0.59423894 0.76809996
0002e0 22 38 f8 be 75 77 64 3e 76 95 82 3e 96 30 0a be
       -0.48480326 0.22311194 0.25504655 -0.13495097
0002f0 23 4c d8 3b ac ec fe 3d 9c 67 69 bd 55 c9 96 3d
       0.006600873 0.12447485 -0.056983575 0.0736262
000300 1b d6 46 3e f6 92 31 3e 2a 34 a7 3d c4 a5 5f 3d
       0.19417612 0.17341217 0.081642464 0.054601446
000310 cb b6 69 be e1 4b a8 3d ff 39 04 bc 0d 32 3e 3e
       -0.22823636 0.08217598 -0.008070468 0.1857378
000320 ea 30 8a 3d dd fd da 3d f4 0e 17 be d7 50 0e 3e
       0.06747611 0.10692952 -0.14751798 0.13898025
000330 68 97 5d be 05 39 32 3e 75 3c 5e be 3d 07 63 3d
       -0.21639788 0.17404564 -0.2170275 0.055426825
000340 f6 80 1b 3d 30 ef d0 3c 52 71 fd bd ab 32 8a bc
       0.037964784 0.025504678 -0.1237513 -0.016869863
000350 d1 75 82 be 7a 5b 17 be c3 9f db 3d c1 ad b5 3c
       -0.25480512 -0.1478099 0.107238315 0.022177579
000360 54 69 0c 3d 80 55 cd bd e1 49 12 be 37 0f 8e 3d
       0.034280136 -0.100260735 -0.14285995 0.06936496
000370 f6 01 47 3e 58 23 8b 3e 5e d0 0e 3e d9 ce 0d be
       0.19434342 0.27175403 0.13946673 -0.13848437
000380 ec de 63 be 50 79 b0 bd 4b 04 34 be 4d 7c 13 3e
       -0.22253007 -0.086168885 -0.17579763 0.14402886
000390 75 5e 89 be 18 1b 51 3d 79 2d ba bd c1 e1 c5 bd
       -0.26829877 0.05105123 -0.090907045 -0.096622
0003a0 9f cc e1 bd 6a e1 d1 3d 57 c7 bd be c9 14 a0 be
       -0.110253565 0.102480724 -0.37066147 -0.31265858
0003b0 f8 1a d5 3d 53 19 a2 3d 75 ec f0 bd ee 9e 7c bd
       0.104055345 0.079149865 -0.117638506 -0.061675005
0003c0 dc f6 e6 bd 07 fe b2 3d 75 b6 a2 3b 53 c3 cd 3d
       -0.112775534 0.08739858 0.004965598 0.10047021
0003d0 cb 76 13 bd 61 ef 32 3e 0f ca e4 bd 21 cf 24 3e
       -0.03600196 0.17474128 -0.11171352 0.16094638
0003e0 ab 8e b2 be 60 ec a4 bd 3d 01 32 be 44 a5 79 be
       -0.34874472 -0.080528975 -0.17383285 -0.2437945
0003f0 90 a2 f6 bc 54 6a 3f 3e b4 72 13 be 56 51 61 3e
       -0.030106813 0.18692905 -0.14399225 0.22003683

Const_17 f4 [32, 1, 1, 22]
000000 b2 01 8e be 6a 10 ff 3f c0 1d 2e bd 9f 74 9b bd
       -0.27735668 1.9926884 -0.04250884 -0.07590603
000010 be 27 8f 3d 2c 27 06 3e ec 7c 34 3d 93 f6 ab 3e
       0.06990002 0.1310088 0.044064447 0.3358656
000020 93 4d b0 bc 10 92 bc 3b 7c 36 b3 bd 43 3d 62 3c
       -0.021521365 0.0057547167 -0.087506264 0.013808551
000030 81 92 ca 3d 8e c7 4d 40 26 8e b2 be 0c b4 a2 3d
       0.09891225 3.2153049 -0.34874076 0.079444975
000040 ef 11 c1 3d 4c 3a 0a 3e cc ba 87 bd 34 5e d8 3d
       0.09427249 0.13498801 -0.066274256 0.10564843
000050 91 8b 17 be c0 1c d4 be bf 03 d2 ba 2d d6 07 be
       -0.14799334 -0.41428185 -0.0016022845 -0.13265295
000060 77 f7 29 3b eb 35 09 3b c8 ef 4f 3d 28 f5 69 3c
       0.0025934854 0.0020936679 0.050765783 0.014279641
000070 7f e1 bb 3b 52 de 01 bd 11 61 6b 3b 78 ae 04 3c
       0.0057336683 -0.03170616 0.003591601 0.008098237
000080 59 68 9a bc 1a 71 31 3c 10 ff ee 3b 90 c8 04 c1
       -0.018848585 0.010830188 0.0072935894 -8.298965
000090 e9 88 19 3d 62 2b a6 bc 24 7e 3e bf 7e 07 ab bc
       0.037484083 -0.020284358 -0.74411225 -0.020877596
0000a0 00 39 b4 bc 74 18 80 3d be b6 0a be 91 ad 06 bc
       -0.021999836 0.06254664 -0.13546273 -0.008220092
0000b0 9d e5 9d bc 14 18 94 bd 93 f5 97 3e 0d 49 08 be
       -0.019274527 -0.07231155 0.29679546 -0.13309117
0000c0 c3 d1 10 be 19 98 e0 3e 4a 77 a7 bf da 15 92 bf
       -0.14142518 0.4386604 -1.3083279 -1.1412919
0000d0 75 6f aa bf 8e 1a 90 be 70 03 b2 3d 36 d5 31 3e
       -1.3315264 -0.2814526 0.08692062 0.1736649
0000e0 0b 29 50 3d 22 0f da be 72 c0 d5 3d 5e 6c 3e 3e
       0.05082039 -0.4258967 0.10437097 0.18596026
0000f0 46 d1 28 bf 08 74 2e 3e ac c9 e1 bd d0 da 9c bc
       -0.65944326 0.1703645 -0.11024794 -0.019147307
000100 18 84 a3 3c 52 f8 59 bd 36 38 46 3d d3 dd 35 3e
       0.019960448 -0.053215332 0.04839345 0.177604
000110 fb 11 be 3d a4 78 99 ba 6f dc da bd a9 85 8c 3c
       0.09280773 -0.0011708927 -0.106865756 0.017153578
000120 72 78 ac bd 63 62 0c c0 fd a0 85 3d 19 36 08 3c
       -0.084214106 -2.193505 0.06524847 0.008313679
000130 78 cd 79 bf c6 44 a8 bb d3 f0 dd bd 7e b9 31 be
       -0.97579145 -0.0051351516 -0.10836949 -0.17355916
000140 60 a5 0f 3e 84 6e a0 3d d9 c5 ae 3f 42 b6 73 3d
       0.1402793 0.07833579 1.3654128 0.059499986
000150 c6 b0 44 3e ae c0 a1 be 61 2e a9 bd dd 7b 1a be
       0.19208059 -0.31592315 -0.08260799 -0.15086313
000160 60 19 82 3b de 1a 1d bd 21 1b 79 bb 68 59 b7 bd
       0.00397031 -0.0383557 -0.0038010555 -0.089526
000170 ed d1 dd bc 23 b7 57 3d 3a bb cc 3f 1f 45 eb 3e
       -0.02707764 0.052664887 1.5994637 0.45951173
000180 d7 b8 b5 be f4 a4 f0 3f 98 05 79 3c f3 40 55 3d
       -0.35492584 1.880034 0.015199088 0.052063894
000190 c3 f2 14 be 68 a3 63 3e f6 b7 ba bc f3 b8 2b 3e
       -0.14545731 0.22230303 -0.022792798 0.16769771
0001a0 59 53 49 3d 6c 6c 9d 3e 96 4c de bd 76 9a 0b 3e
       0.049151752 0.30746782 -0.10854451 0.13633141
0001b0 fd 8e fd 3d 93 07 79 3d 84 9e 10 bf 0b c4 8e 3d
       0.123807885 0.06079824 -0.56491876 0.06970986
0001c0 0b d0 87 be b6 43 9f 3e eb fa c6 bd d7 92 a7 be
       -0.26525912 0.31106347 -0.097158276 -0.32729217
0001d0 47 90 80 3f 50 b3 fe bd 0d 5f 37 40 fb ec ee 3d
       1.004403 -0.12436545 2.8651764 0.11666294
0001e0 44 2d 88 3d e4 dd 97 be 4f 5d 69 be 8a 6b 9e 3e
       0.06649259 -0.29661477 -0.227895 0.3094142
0001f0 10 f0 a5 be c0 14 14 3f d9 5b 5d 3c 13 1b 37 bd
       -0.32409716 0.5784416 0.013510668 -0.044703554
000200 80 7e 18 3e e6 bc 80 be cd 3a 0c 3d ef db 3e bc
       0.14892006 -0.25144118 0.034235764 -0.011649116
000210 df 88 3d be ea c8 88 bc 03 bc 83 be fd d3 02 be
       -0.18509243 -0.016697366 -0.2572938 -0.1277618
000220 46 45 3d bb 8e 8e 99 be 8e d9 07 3e 6a 3b af bd
       -0.0028880402 -0.29991573 0.13266584 -0.08556254
000230 fc c9 6b 3e 45 6f 34 40 8e ea 96 3f 08 5e f6 bd
       0.2302627 2.8192914 1.179033 -0.12029654
000240 b0 26 12 3e 61 22 11 40 0c 5c 0b 3e 1f 58 07 be
       0.1427257 2.2677233 0.13609332 -0.1321721
000250 fc 65 8d 3e 91 d2 8d bd 82 ed 49 3e 54 62 ee 3d
       0.2761687 -0.06924928 0.19719508 0.11639848
000260 bd 4c 1b bd 0e 05 39 bd 9b e2 8f bd 9a e1 c1 ba
       -0.03791498 -0.045170836 -0.070256434 -0.0014791966
000270 ee 81 5e 3e 8e 32 3a be 1e de 1e 3c 11 03 c6 3e
       0.21729252 -0.18183348 0.009696512 0.38674214
000280 8c 9c 0b 3e 0d 35 04 be b8 1b 6c be 0b 08 b1 bf
       0.13633937 -0.12910862 -0.23057449 -1.383058
000290 99 6e 99 3f 53 39 4c 40 f6 c1 cb bd a6 e2 5f 3f
       1.1986877 3.1909988 -0.099491045 0.87455213
0002a0 42 c5 e9 be e0 f1 60 bf 38 7a ea 3d 34 23 77 3d
       -0.45658308 -0.8786907 0.114490926 0.060336307
0002b0 76 f1 f7 bd 8d b8 8a 3e 1b 7a ee bc 94 ca bd bc
       -0.12106602 0.27093926 -0.029110959 -0.023167886
0002c0 ac 93 d7 3c 52 c9 95 bd d9 0a 6a 3f ef 78 b0 3e
       0.026315533 -0.073137894 0.914228 0.34467265
0002d0 60 5d 1b 3e b9 85 f9 be 05 d0 7f 3e 32 8b b0 3f
       0.15172338 -0.48734835 0.24981697 1.3792479
0002e0 ec b6 9a bf ed fe 68 be 81 d8 3e be 2a 42 48 3f
       -1.2087073 -0.22753496 -0.18637277 0.7822596
0002f0 4d a8 00 bb 25 6a ba be 78 4f c8 3d 9e 3f c6 bd
       -0.0019631565 -0.36409107 0.097807825 -0.09680103
000300 21 e4 b4 3f 0a 4e d8 3e 7b 70 66 be 2b 88 7a be
       1.413212 0.4224704 -0.22503845 -0.24466006
000310 7e 43 4c be 0f fd 82 bd 9a ca 1d bf 86 b4 48 be
       -0.19947621 -0.06395923 -0.6163727 -0.19600114
000320 ae 50 67 be aa 2f 0a 3f 33 fc 79 3e 67 c9 1e 3e
       -0.2258937 0.5397898 0.24412613 0.15506516
000330 0e 5c 68 3f b5 6e c2 3e 1a 2c 5f bf dc 5c 9e 3e
       0.90765464 0.37975088 -0.8717667 0.3093022
000340 e7 e9 a0 3b 0a 19 e1 bd c4 22 99 3f ba 6d cc 3e
       0.004910696 -0.10991104 1.1963735 0.39927465
000350 41 f8 38 3f 5b cf 15 bc 0a 92 c0 bf 0e 1b aa bd
       0.72253805 -0.009143676 -1.5044568 -0.083059415
000360 2c d3 c6 bd 11 a2 9b 3e 2a 9c 0c bf 5b a7 ff bd
       -0.097082466 0.30397084 -0.5492579 -0.124830924
000370 36 32 da bd 12 c0 1f 3d c4 df 7a 3e 66 02 d8 be
       -0.10654108 0.039001532 0.24499422 -0.4218933
000380 a9 f4 2c bd 72 62 72 be 59 a4 03 40 5d 36 b8 3b
       -0.042225514 -0.23670366 2.056906 0.005621715
000390 29 51 d5 bf 1a 57 a8 3c 84 c0 8f 3c 38 7a a7 3d
       -1.6665393 0.020549346 0.017547853 0.08177608
0003a0 4c 3b ac bd c2 f1 29 3e 10 e7 01 3c c6 78 88 3d
       -0.084097475 0.1659613 0.007928625 0.06663661
0003b0 f8 4a 11 3e dd 14 00 3e 16 f0 c5 bd 00 27 2a 3c
       0.14188755 0.12507959 -0.096649334 0.010385275
0003c0 02 87 22 bd 50 97 da bc c4 21 8a 3d 3b a8 5c bc
       -0.039679535 -0.02668348 0.067447215 -0.013467844
0003d0 8e bb fd be 23 59 53 be 05 bc 2f 3d 70 11 bc 3e
       -0.49557155 -0.20639472 0.04290392 0.36732054
0003e0 0d 95 1d bf 02 47 5f 3f 7b bd 40 3f 41 25 20 be
       -0.6155556 0.87217724 0.75289124 -0.15639211
0003f0 cb 09 80 be 8e 8b f0 be 08 e4 99 3e 56 ad 9e bf
       -0.2500747 -0.46981472 0.30056787 -1.2396648

Const_31 f4 [256]
000000 ba 32 bc bf 44 4b ee bf ec 39 cd bf 25 b7 c3 bf
       -1.470298 -1.8616719 -1.6033301 -1.5290266
000010 a6 14 ac bf 12 4a 0c c0 fd 85 55 bf d8 92 ea bf
       -1.3443801 -2.192021 -0.83407575 -1.8326063
000020 fc 4b 97 bf 60 23 16 c0 b0 26 46 be 09 91 10 c0
       -1.1820064 -2.345909 -0.19350696 -2.2588522
000030 79 32 ab bf 1a a3 c2 bf 24 4a f0 bf b9 b6 7b bf
       -1.3374778 -1.5206025 -1.8772626 -0.9832569
000040 36 dd f4 bf 36 00 c3 bf 79 7f 96 bf e4 0b ca bf
       -1.9130008 -1.5234439 -1.1757652 -1.5784879
000050 11 5a d8 bf 71 24 04 c0 1c dd 54 c0 a0 d7 bc bf
       -1.6902486 -2.0647242 -3.3259954 -1.4753304
000060 e4 e7 de bf c8 16 9d bf 14 f8 d6 bf 89 c4 a2 bf
       -1.7414517 -1.2272577 -1.6794457 -1.2716228
000070 d8 1b dd bf 6c 3c 60 c0 fd a5 ef bf 1b 7f d0 bf
       -1.7274122 -3.5036879 -1.8722531 -1.628879
000080 a1 dc c1 bf 55 c5 0a c0 66 9f 53 bf 80 12 b4 bf
       -1.5145456 -2.1682942 -0.826651 -1.4068146
000090 35 1d 84 bf f6 f0 2c c0 28 ea 11 c0 12 14 b1 bf
       -1.0321413 -2.702207 -2.2799168 -1.383425
0000a0 cc 04 5f bf 63 bf fa bf 32 ed 1f c0 c2 0c 8b bf
       -0.87116694 -1.9589657 -2.4988523 -1.0863268
0000b0 43 5c 19 bf 70 62 56 bf ea 90 b5 bf 55 84 e5 bf
       -0.59906405 -0.83743954 -1.4184849 -1.793101
0000c0 ce a1 cc bf 64 c1 0f c0 c5 1e 18 c0 29 7f 9f bf
       -1.5986879 -2.2461786 -2.376878 -1.2460681
0000d0 a4 45 e2 bf b6 35 06 c0 94 82 d1 bf 92 96 91 bf
       -1.7677503 -2.0970283 -1.6367974 -1.1374075
0000e0 26 09 ec bf 83 45 5e bf 1b 02 96 bf 8e 24 5a bf
       -1.8440292 -0.86824816 -1.1719393 -0.8521203
0000f0 d7 ea 4a bf 30 50 05 c0 77 c3 bf bf 6b 16 c5 bf
       -0.7926459 -2.0830193 -1.4981526 -1.5397466
000100 cf ae 4b 3f 6d d9 29 40 da d9 f3 3f 58 3f 19 3f
       0.7956361 2.6538956 1.9050858 0.5986228
000110 2c 59 5b 3f 74 f1 48 40 2f 31 69 3f e6 f1 0e 40
       0.8568294 3.1397371 0.91090673 2.2335143
000120 bc 0c 83 3e bb dd 3b 40 4d 93 f4 be ff 35 38 40
       0.25595653 2.9354084 -0.47768632 2.8782957
000130 d6 91 a7 3f 41 2b 3a 40 61 18 61 be ba 9a e5 3c
       1.3091381 2.90889 -0.21981956 0.028027881
000140 d8 89 c1 3f 17 61 6a 3f 5d bb 9e 3f 12 d2 e4 3f
       1.5120192 0.915544 1.2400929 1.7876608
000150 15 ce d6 3f a3 b6 2d 3f 25 47 5c 40 dc 56 11 3f
       1.6781641 0.67856807 3.4418423 0.5677316
000160 ec bc d8 3f c9 64 05 3f 5c 2d fd 3f bd f8 9e 3e
       1.6932654 0.5210691 1.9779468 0.31049147
000170 67 09 c1 3f 6c 1c 82 40 78 7b 4c 3f a6 ac 9f 3f
       1.5080994 4.0659695 0.798759 1.2474563
000180 59 10 69 3e ac f1 39 40 5b 46 ee bf aa 9f 8d be
       0.22760142 2.9053755 -1.8615221 -0.27660877
000190 a9 8b 1d 3f 22 fa 5c 40 b3 be 1e 40 1d 11 71 3f
       0.6154123 3.452767 2.4803894 0.9416674
0001a0 a5 c8 24 be e5 49 9f be e5 f6 ef 3f 6b 1d c9 bd
       -0.16092165 -0.31111065 1.8747221 -0.09820064
0001b0 54 8e 9b bf 06 c2 9c bf b1 d2 e3 3f b6 95 e0 3f
       -1.215281 -1.2246711 1.7798673 1.7545688
0001c0 89 7d ea bf f3 96 90 3e 0c d7 07 40 77 f3 5b 3f
       -1.831956 0.28240165 2.1225004 0.8591837
0001d0 ec 42 d2 3f ab c1 24 40 a5 d2 4b 40 5d 21 b5 bf
       1.6426673 2.5743206 3.1847317 -1.4150807
0001e0 9e 5d da be 86 43 cf 3e 0e 3e 91 bc d8 99 5e be
       -0.4264955 0.40481204 -0.017729785 -0.21738374
0001f0 84 51 84 3f 52 74 06 40 2b 01 41 3e 1f 8a e4 be
       1.0337377 2.1008496 0.18848102 -0.44636628
000200 11 69 33 bf 34 b2 8d bd 1c 85 6b bd 6c 46 30 3f
       -0.70082194 -0.06918755 -0.05749999 0.68857455
000210 7c bf 85 be f8 03 2c 3a 03 19 c8 3e 3a 21 37 bd
       -0.26122653 0.00065618707 0.39081582 -0.04470942
000220 9e 61 43 3e 86 32 ec 3a ed a7 10 bc 7d 81 c3 ba
       0.19080207 0.0018020428 -0.008829099 -0.001491591
000230 da a7 07 bd 75 13 da bd 98 4c 4f bd ee 14 4a 3e
       -0.03311906 -0.106482424 -0.050610155 0.19734547
000240 9a af f0 3b 74 48 c6 3c a1 a7 fb bc 76 01 e9 3d
       0.007345152 0.02420447 -0.03071958 0.11377232
000250 d6 6f f4 bc 71 a2 b4 bd d2 94 6a 3c b8 11 0a 3e
       -0.029838484 -0.08820046 0.014317708 0.13483322
000260 6a f3 d8 bd f7 18 84 3d 42 6e 86 3d f4 fc 96 bd
       -0.105933025 0.06450074 0.06563999 -0.07372466
000270 88 78 ca bb f7 b5 d0 3c 96 d8 0b be 2a b1 20 3d
       -0.006178919 0.025477393 -0.1365684 0.039231457
000280 d9 7b 29 be 8f c7 2a 3d b7 fa e3 3c c4 f6 f1 3d
       -0.1655115 0.04169422 0.027829511 0.11814645
000290 d7 48 9a 3b da 76 e7 3d 00 5e a1 3d c9 32 f6 bd
       0.00470839 0.11301966 0.07879257 -0.12021405
0002a0 7d 9b 8b be 43 84 e1 3c b9 9d 0a 3d 35 1b ed be
       -0.27267066 0.027528888 0.033841822 -0.4630982
0002b0 39 28 bd be de 28 46 3f f4 9b 2b be f8 44 fa 3e
       -0.3694475 0.7740611 -0.1675871 0.48880744
0002c0 80 e0 99 bd 9b f2 b7 bd 9a b2 a9 3d a5 2c df 3c
       -0.07513523 -0.0898182 0.08286019 0.027242968
0002d0 94 63 85 3c c5 46 48 bd de f5 81 bc 50 8a b7 3e
       0.016282834 -0.048895616 -0.015864309 0.35847712
0002e0 7c 68 2f bb 5d 73 69 bd 85 15 70 bd a9 f9 df 3e
       -0.0026765158 -0.056994785 -0.058614273 0.43745163
0002f0 28 e1 fa bc 19 76 54 bd 9b 0c 9a be 6e 23 e6 3e
       -0.030624941 -0.05187044 -0.30087742 0.44948906
000300 5d 85 c3 be bd 41 cb bf 76 66 dd bf ac ac f4 bf
       -0.38187686 -1.5879437 -1.7296894 -1.9115195
000310 70 48 b6 bf 67 a6 c1 bf 88 0b 01 c0 da 1e 69 bf
       -1.4240856 -1.5128907 -2.0163288 -0.910627
000320 5b 37 ad bf 85 6a ec bf 21 10 86 bf 08 17 e7 bf
       -1.3532518 -1.8470007 -1.0473672 -1.8053904
000330 db fe a4 bf 8e 9a 00 c0 9e 34 61 bf 31 5e e4 bf
       -1.2890276 -2.0094333 -0.8797091 -1.7841245
000340 da cc b1 bf 7d df 7c bf a2 39 b4 bf c8 95 eb bf
       -1.3890641 -0.98778516 -1.4080088 -1.8405085
000350 09 7b db bf 20 85 61 bf a8 e4 cb bf b5 14 98 bf
       -1.7146922 -0.8809376 -1.5929155 -1.1881319
000360 cc 12 c6 bf f1 63 8b bf 37 f3 e3 bf 9f 36 af bf
       -1.5474486 -1.0889875 -1.7808598 -1.3688544
000370 be 71 a2 bf c0 25 40 bf da de 3a bf 1b 8e b7 bf
       -1.2690961 -0.750576 -0.72996294 -1.4340242
000380 0b 98 a2 bf 62 fe fb bf 0b 11 ca bf 22 bb 87 bc
       -1.270265 -1.9687006 -1.5786451 -0.016568724
000390 1d e3 16 bf fb 0c ed bf 30 7e b0 bf 4d 37 d3 be
       -0.589403 -1.8519586 -1.3788509 -0.4125313
0003a0 9f e9 06 bf 84 18 67 bf 4b 3a c9 bf d8 fc d7 bf
       -0.5270023 -0.9027178 -1.5720915 -1.6874037
0003b0 11 63 b1 bf 78 42 6f bf 9f e9 c9 bf 49 ea ad bf
       -1.3858358 -0.934608 -1.577442 -1.3587123
0003c0 b1 8e 48 be 54 90 23 bf ff 18 e9 bf 3f 62 76 bf
       -0.19585682 -0.638921 -1.8210753 -0.9624366
0003d0 7e db ff bf fe d4 05 c0 d5 a7 19 c0 85 87 40 bf
       -1.9988859 -2.091125 -2.4008687 -0.75206786
0003e0 5a ac 51 bf 06 5e 13 c0 50 72 8b bf 17 cd bf bf
       -0.8190361 -2.3026137 -1.089426 -1.4984463
0003f0 1c 3c b8 bf ee e9 84 bf 48 cf 6e bf 97 86 f6 be
       -1.4393344 -1.038389 -0.93285036 -0.4814956

Const_32 f4 [1, 8, 1, 22]
000000 7c 1e c6 bc ce c9 bc 3d 98 2b 82 bc 5a 82 46 3d
       -0.024184458 0.09218179 -0.015889928 0.048464157
000010 6b 5b aa 3d 9f cb b4 bb b5 93 e5 bd 4b d8 50 be
       0.08318218 -0.0055174376 -0.112098135 -0.20395009
000020 58 82 4f 3c 3f d1 eb 3b 23 61 13 bd 1d 7a c9 bc
       0.012665354 0.007196575 -0.03598131 -0.024594361
000030 3b ef 0c bf e3 93 d6 bf 5f 5e 10 3f 65 6f 6d bd
       -0.55052537 -1.6763881 0.56394 -0.057967562
000040 9a 45 7e bf 58 e5 9e 3f f4 a6 63 3d fc 67 02 be
       -0.99324954 1.241374 0.05557914 -0.1273498
000050 4a b5 f7 bb da e1 e9 bd 94 88 5a 3d 09 4f 34 bd
       -0.007559453 -0.11420031 0.053352907 -0.044020686
000060 28 fc 72 bd 45 5b d3 bc 41 e3 57 bd 8f b7 83 bd
       -0.059322506 -0.025800357 -0.05270696 -0.064314954
000070 29 54 15 3e 1d 44 b8 3d da 02 cd 3d ca e7 bf 3c
       0.14582886 0.089973666 0.100103095 0.023425955
000080 eb 01 14 be bb 6c cc 3d 6e 05 12 bf 13 17 2a bf
       -0.14453857 0.09981676 -0.57039535 -0.6644146
000090 51 5b 02 3f 99 07 fd bb 57 c2 ae be 21 83 44 3e
       0.5092059 -0.007721853 -0.34132645 0.19190647
0000a0 28 f2 1e be 54 52 13 be b4 c3 15 bc 26 61 02 be
       -0.15522063 -0.14386874 -0.009140898 -0.12732372
0000b0 8b f1 b7 3c a5 23 63 bd 52 e0 8a bd 73 78 1b ba
       0.022454044 -0.055453915 -0.06781067 -0.0005930729
0000c0 4f 82 72 bc ce 17 94 bd 67 98 4b 3e 42 91 3b 3e
       -0.014801576 -0.07231103 0.19882356 0.1831713
0000d0 84 7c 69 3e 8e ed b6 bc dc bc a7 3d d8 8b 9a bd
       0.22801405 -0.022330072 0.08190319 -0.07546204
0000e0 d0 53 31 be 1b d1 3f be 4d c7 0f 3e ca 26 75 be
       -0.17317128 -0.18732111 0.14040871 -0.23940578
0000f0 47 44 19 be c9 d3 d7 bd 00 54 9b 3c 97 76 1d be
       -0.14967452 -0.10538442 0.018960953 -0.1537727
000100 bb 95 78 bc b2 42 fb bd 57 dd fb 3c 28 4e a4 bd
       -0.015172417 -0.122685805 0.030745191 -0.080227196
000110 1a 56 ad bd 42 84 0c bd 85 29 97 bd af 6d a5 bd
       -0.08463688 -0.03430582 -0.07380966 -0.08077561
000120 50 55 a7 3d 2b 7b f2 3d 9f 09 07 3d f2 ec da 3d
       0.08170569 0.11839899 0.03296816 0.10689725
000130 0a 25 ad bd 94 f1 94 3d 9c 8f 5b 3c ef 79 17 bd
       -0.0845433 0.0727264 0.013400938 -0.03698152
000140 bf f7 9d bd b9 6b 46 be c8 24 61 3e ee 3b 0a be
       -0.077132694 -0.1937703 0.21986687 -0.13499424
000150 d2 d9 c4 3d 0e be 10 be 1e 99 b4 bc f7 b5 08 be
       0.096118584 -0.14135 -0.022045668 -0.13350664
000160 d2 87 2a 3c 07 e5 e2 bc ae c0 7d bd 46 12 99 bb
       0.010408359 -0.0276971 -0.06195133 -0.004671368
000170 3f c8 42 bd ad c5 8b bd 20 4e 4e 3e fb 33 5e 3e
       -0.04755425 -0.06824813 0.2014699 0.21699516
000180 45 78 5c 3e ae d9 a4 bb ae 24 7b bd 3d 92 fa 3b
       0.21530254 -0.0050308323 -0.061314277 0.0076468275
000190 83 a8 ad 3e 0d 1d d4 bd be c1 93 be 09 e5 4b bd
       0.33917627 -0.103571035 -0.2885875 -0.04977897
0001a0 12 c5 68 3e 0c 8e c0 bc 42 fa 23 be 70 df 2f 3d
       0.22731426 -0.023505233 -0.16013435 0.042937696
0001b0 87 14 d4 bc 24 09 10 be 63 47 75 3d 6a 61 06 bd
       -0.025888694 -0.14065987 0.059882533 -0.032807745
0001c0 16 b2 84 bd c9 ce 0b bc 82 bd d5 b9 ba a5 7b bd
       -0.0647928 -0.008533188 -0.0004076772 -0.061437346
0001d0 97 51 87 3c bb 67 b1 bd f0 0a 11 bd 1c fa 80 bd
       0.016518397 -0.08662363 -0.03541082 -0.062977046
0001e0 d2 e6 89 3a c2 91 e1 3c 00 fb 24 3f f2 a4 82 3d
       0.001052106 0.027535323 0.64445496 0.06379117
0001f0 21 58 8d be e1 b1 a9 bd d4 a7 b4 3d 53 6e 9e 3d
       -0.276063 -0.08285881 0.08821073 0.077358864
000200 d0 fa 6a 3d c6 ba b7 3d 93 c0 b6 bc 34 f7 07 be
       0.0573681 0.08971171 -0.022308623 -0.13277894
000210 ef fe c1 3b d0 45 4c bd b4 4f 55 bd 4c 1a 59 bc
       0.005920283 -0.049871266 -0.052077964 -0.013250899
000220 60 3e 8a bc 09 7e 4c bd 31 c6 70 3d fc 28 0f 3e
       -0.016875446 -0.049924884 0.05878276 0.13980478
000230 59 14 69 3d 6e 49 ad b9 ea c0 7b 3d b2 5f c2 bc
       0.05690417 -0.0003305184 0.061463274 -0.023727272
000240 92 2c aa 3f 51 35 64 3f 2c 26 31 bf 26 03 01 3f
       1.3294852 0.89143854 -0.6919887 0.5039543
000250 bb 7b 93 3e 3b c0 72 3e c1 e0 29 be 48 95 e1 3c
       0.28805336 0.23706143 -0.16589643 0.027537003
000260 75 48 f4 bc 47 0e 05 be 67 22 1f 3e 32 b5 c5 be
       -0.029819706 -0.12993728 0.15540467 -0.38614804
000270 84 f9 5b be b4 8e 45 be f9 3c 82 be 40 6d 50 be
       -0.21481901 -0.19292718 -0.25437143 -0.20354176
000280 dc 52 7c 3f 66 56 4f 3f 2a 99 59 3f 36 1e 1a 3e
       0.98563933 0.8099121 0.84999335 0.15050587
000290 76 f1 34 bd 0e 74 e0 3d e2 f8 b7 3f e0 f4 0d 40
       -0.044175588 0.10959636 1.4372828 2.218071
0002a0 cf 54 0b c0 42 3f 27 3f fb 75 e1 3e 56 a7 d9 bf
       -2.1770513 0.653309 0.44035324 -1.7004192
0002b0 c2 75 d9 3d c2 9c f9 3d 7b 22 07 bd 9a 68 f3 bd
       0.10618164 0.12188102 -0.032991868 -0.118851855
