Assets/FinchSdk/SDK/FinchBase/Plugins/iOS/Resources.bundle/Contents/Resources/elbow_ring.tflite (tflite, 490064 bytes, 80 tensors)

Const f4 [1, 32, 1, 22]
000000 51 6f 4d be 29 56 3b bd 89 9d 74 be 2e d3 2f be
       -0.20061995 -0.045736466 -0.2388822 -0.17170402
000010 ba ab bb bd cd 93 6d be 07 be bc 3d d0 c1 57 3c
       -0.091636136 -0.23200913 0.09215932 0.013168767
000020 89 5a f2 3d f3 57 5c 3d df a1 f0 bb 94 9f 0b be
       0.118336745 0.053794812 -0.0073435153 -0.13635093
000030 cb 6d 79 3f 7b c6 47 bf db 28 39 bf 1c 25 69 be
       0.97433156 -0.7803723 -0.72327965 -0.22768062
000040 36 32 5f 3f 0f ac 7a bd 9f 70 74 bd c0 a1 9a 3a
       0.8718599 -0.061199244 -0.059677716 0.0011797473
000050 7a fc 86 bd f9 13 b3 3d 2b a9 a8 3b f6 c0 07 bd
       -0.06591125 0.08744044 0.0051471195 -0.033143006
000060 e3 3f 85 bd 5d 7f 7c bd aa 95 6e be 80 9a 0c be
       -0.06506326 -0.0616449 -0.2329928 -0.13730812
000070 71 c9 e4 3d 0a 09 39 bd d4 ec eb 3d 7f 4f ab bc
       0.111712344 -0.045174636 0.11519781 -0.02091193
000080 5f 3a ce bd 4c ab 9f 3b ad b4 25 3f 33 c2 26 bf
       -0.10069727 0.004872715 0.64728814 -0.65140074
000090 88 95 1e bf be 81 ad bd c3 3e fe 3e 37 57 5f bd
       -0.61946917 -0.08472012 0.49657258 -0.054526534
0000a0 9f 9d 95 3d 5e 0c 2c 3d a7 df 93 bd e0 c0 cb 3d
       0.073054545 0.04200398 -0.07220393 0.09948897
0000b0 71 89 4d 3d 3d a7 a1 bd 1e 1f 2c 3d 01 be 4b bd
       0.050179902 -0.07893226 0.042021863 -0.04974175
0000c0 e3 e0 14 3e 25 a1 7d bc 9b 50 bb be 3b 07 bb bd
       0.14538912 -0.015480314 -0.36584935 -0.091322385
0000d0 89 5c fc be 0e 61 ba be 6b 2f 11 3e 8e 2f cb 3e
       -0.4928935 -0.36402172 0.14178245 0.3968472
0000e0 4f 99 f1 3e 51 8a da be 99 a1 cb be 8d dd 9a bd
       0.47187278 -0.42683652 -0.39771727 -0.07561789
0000f0 9a 41 6d 3e ba a1 84 bd 88 b2 8d 3c d1 3a 84 3d
       0.23169556 -0.064761594 0.017297044 0.06456531
000100 e4 8f 11 be 11 9e f0 3d dc a2 86 be 56 40 b0 bd
       -0.14215046 0.11748899 -0.26296127 -0.08606021
000110 14 2c 2d be 7e f6 9b 3d 90 3a 92 3d 76 b4 0c 3e
       -0.16911346 0.07615374 0.07140076 0.13740715
000120 01 67 4f be 11 57 c0 3d 7a 16 45 be 6d d3 31 be
       -0.20254137 0.093916066 -0.19246855 -0.17365809
000130 ce f6 a0 be 20 f0 7d 3e 87 28 d3 3e d2 38 c3 be
       -0.31438297 0.24798632 0.41241857 -0.38129288
000140 b5 6c 88 be 22 af 0d 3e f3 86 18 3d 93 b2 96 3d
       -0.26645437 0.13836339 0.037238073 0.07358279
000150 96 41 29 bd dc 60 de 3c 27 af b8 bd 85 26 51 3e
       -0.041322313 0.027145796 -0.09017783 0.2042485
000160 fc cc c6 bd 3e d8 9a 3d 2b db df bd 6e dd fd bd
       -0.097070664 0.07560776 -0.10930475 -0.1239575
000170 0f 55 54 3d 3a 5c f2 bd f8 99 43 3d 61 67 73 3e
       0.05183893 -0.11833997 0.047754258 0.23769905
000180 b6 f1 c7 bd 80 92 53 3e 90 aa 6f 3e f6 f0 28 be
       -0.097628996 0.20661354 0.23404908 -0.1649817
000190 47 24 6f 3e 4f 1f cb be 43 eb ec bd dc f8 39 3e
       0.23353682 -0.39672324 -0.1156831 0.18161339
0001a0 da c1 8c be fe 54 09 bb 63 98 58 bd b0 7a 0a 3d
       -0.27491647 -0.00209552 -0.052879702 0.03380841
0001b0 6d 79 27 be 61 14 1b 3e e0 1c 3f bc ab b5 6a be
       -0.16354914 0.15144493 -0.011664599 -0.22920863
0001c0 a3 8f 3a bd fe 1a fd bd 9f 0c 9f bd cd a5 87 bd
       -0.04554714 -0.12358664 -0.07766079 -0.06623421
0001d0 cc be 75 be 15 a8 db be 33 4b f6 bc 9d 53 d1 3e
       -0.23998564 -0.42901674 -0.030065155 0.40884104
0001e0 e5 98 d7 be 44 44 e6 be 8d fc 00 3e 27 c4 87 be
       -0.42108837 -0.44973958 0.1259634 -0.2651684
0001f0 49 2f 00 be 6a ff b6 3d e8 f2 f9 be b4 c0 c0 3b
       -0.12518038 0.08935435 -0.48818135 0.005882347
000200 d9 06 81 3d 80 1b a1 3a d0 08 7f be db ca 17 3e
       0.06300134 0.0012291521 -0.24905705 0.14823477
000210 71 30 a7 bc 92 14 c7 3d 9f b0 26 bd 6e b7 ee bd
       -0.02040884 0.0972072 -0.040695783 -0.1165608
000220 98 a9 5b be ff d6 46 be 19 ea c7 be 9f 54 7d be
       -0.21451414 -0.19417952 -0.3904579 -0.24739312
000230 10 c3 b7 be 17 23 d2 3d 30 57 0e 3e 3e 70 86 bc
       -0.35891008 0.10260599 0.13900447 -0.016410943
000240 15 96 85 bd 2d a9 41 be dd e3 07 3d 1a da 93 3e
       -0.065227665 -0.18912192 0.03317629 0.28877336
000250 1b 9e fa be 5a f5 30 be 83 5e 93 3d b0 60 81 bd
       -0.4894875 -0.17281094 0.07195761 -0.0631727
000260 69 c6 46 be f1 d2 b2 3d 19 cd e7 bd 2d 2c 81 bd
       -0.19411625 0.0873164 -0.11318416 -0.06307254
000270 1f ca 08 be 3f 4b d1 3d e3 2a c2 3e af 89 0a 3e
       -0.13358353 0.1021943 0.37923345 0.13529085
000280 25 92 c9 3e d7 68 8c 3e 8a 6c 00 3f 7b 5d 27 be
       0.39369312 0.27423736 0.5016562 -0.16344254
000290 a6 bd 81 be b9 a4 b8 3d 52 ff e1 bc 62 52 08 3c
       -0.25340003 0.09015793 -0.027587567 0.008320423
0002a0 5e 5a 6f bc 26 4b 0e 3e c9 a7 57 be 42 d7 c9 bd
       -0.014608948 0.13895854 -0.21060099 -0.0985551
0002b0 ba 04 83 bd 28 64 ea 3c 3d 6b 86 bc f6 5f c3 3d
       -0.06397386 0.028612211 -0.016408557 0.095397875
0002c0 12 2b cd bc 89 78 a1 3d 47 3d 94 bc da 99 28 be
       -0.025044952 0.078843184 -0.018095626 -0.1646494
0002d0 46 83 8e be 03 a8 26 be 9d a8 77 bd cf c5 4f be
       -0.2783453 -0.16275029 -0.060463537 -0.20290302
0002e0 2b 2a 6d bd 89 b1 3d be c5 44 87 3e e4 06 4c 3e
       -0.057901543 -0.18524756 0.26419654 0.19924504
0002f0 bc 3b ea bd a1 52 52 3d b9 d5 c3 3d 7a 4d 5d 3e
       -0.11437175 0.051348332 0.09562249 0.21611586
000300 53 44 a3 be d6 eb 8e be 00 0a 91 3a bc e8 8c 3c
       -0.31888065 -0.27914304 0.0011065602 0.01720082
000310 86 98 62 be d7 40 00 3e e1 c9 cc 3b 09 84 6b 3d
       -0.22128496 0.12524734 0.006249652 0.057498965
000320 d6 b2 d4 bc 47 6e d7 3c aa 0d a4 bd b3 3b 9e 3d
       -0.025964182 0.026297702 -0.08010419 0.077262305
000330 ff 07 d3 3e 21 90 05 bf 94 74 af 3e c9 26 22 3d
       0.41217038 -0.5217305 0.3426863 0.03958777
000340 b0 b3 87 3e 3d c0 43 3c 2a fd 4f be 6c a4 17 3e
       0.26504278 0.011947689 -0.20311418 0.14808816
000350 98 98 32 3e 80 0a 49 3e 48 12 bc be 3e 03 75 be
       0.17441022 0.19632912 -0.36732697 -0.23927018
000360 0f 80 af bd 4f ac 92 3d f2 7f 0a be db 12 01 3e
       -0.08569347 0.071617715 -0.1352537 0.12604849
000370 2f 29 2c be 2c 6e 7d bd 56 c0 06 be 15 2d 17 be
       -0.16812585 -0.061872646 -0.13159308 -0.14763291
000380 c0 c0 6f 3d e0 7e 34 be e9 7a 89 be 1b d0 0f bf
       0.05853343 -0.17626524 -0.26851586 -0.5617692
000390 78 e6 8f be b7 6e 49 3d c4 d0 c3 be 16 93 0e be
       -0.2810552 0.04917785 -0.38245213 -0.13923296
0003a0 6c 99 8f be ef 5b 4c 3e 4d 12 16 3e 7f 0b 87 3d
       -0.2804674 0.19956945 0.14655419 0.065939896
0003b0 e5 63 b4 be b4 bb 17 be 6a 74 31 3d 2b ba 87 bd
       -0.35232463 -0.14817697 0.04332391 -0.066273056
0003c0 cd bc 1b be 5c c8 36 3e 15 2e 02 be e4 ce dc bd
       -0.1520874 0.17849869 -0.12712891 -0.10781649
0003d0 3d fa 2a be 54 30 42 3b e0 8d 26 bd 9c 47 00 3d
       -0.16697021 0.0029630857 -0.040662646 0.031318292
0003e0 f7 4f bb be 5e 3e cf 3e 20 88 aa be 12 a0 4b be
       -0.36584446 0.4047727 -0.3330698 -0.1988528
0003f0 24 dc d8 be 4f 28 97 3e a4 98 a5 be 16 dd d4 3d
       -0.42355454 0.2952294 -0.32343018 0.10393731

Const_1 f4 [32, 1, 1, 22]
000000 87 27 3d be ac f1 a2 3d 14 16 26 3e 7a 56 3a be
       -0.1847211 0.079562515 0.1621936 -0.1819705
000010 74 81 5a bd ff e0 47 3e 40 dd 2b 3f 42 8e 32 be
       -0.053346112 0.19519423 0.67134476 -0.1743708
000020 e2 50 1d bf 78 9f 1d bf 43 3d 2c be e4 ee cb 3d
       -0.6145154 -0.61571455 -0.16820244 0.09957674
000030 53 87 fb 3e fe a6 a6 be ac a1 9c bf d1 7f 72 3f
       0.49126682 -0.3254928 -1.2236838 0.9472628
000040 d8 42 fc 3d 65 95 fa be 19 92 96 3e e0 28 db 3d
       0.12317437 -0.48942104 0.2940834 0.10701156
000050 67 df 35 3e c5 90 e6 bd 60 a3 22 be 70 75 64 be
       0.17761002 -0.11258081 -0.15882635 -0.22310424
000060 04 c1 bd 3c b0 7a 05 3e 23 cb 4c bc fb d3 5f bd
       0.023163326 0.13035083 -0.012499603 -0.05464552
000070 42 f8 15 bf fa 97 51 3e 42 b5 89 be a5 c9 1b 3f
       -0.58581936 0.2046813 -0.268961 0.6085456
000080 e2 ec 57 bf 2b ad 17 bf 89 c7 90 bf 8b b7 d4 3e
       -0.8434583 -0.5924861 -1.1310893 0.41546282
000090 14 30 37 bd 08 3b 60 bf dc ba 16 3f b1 b8 5b 3c
       -0.044723585 -0.87590075 0.58878875 0.013410733
0000a0 da 0d 22 3e 8c 81 e2 bd f6 45 2f 3e 15 f3 c9 bd
       0.15825596 -0.11059865 0.17116532 -0.09860817
0000b0 fe ea 2a 3e c1 9b 38 be c4 c4 8e 3e 7e 7c 11 be
       0.16691205 -0.18028165 0.27884495 -0.14207646
0000c0 4e b1 70 bb 28 32 cd be 10 e5 83 3e 39 5f 7b be
       -0.0036726776 -0.4007733 0.25760698 -0.24548043
0000d0 95 22 d6 bf a4 c3 0c bf a1 22 32 be 85 7d 95 3d
       -1.6729304 -0.54986024 -0.17396022 0.072993316
0000e0 0b 63 e9 3e f4 64 88 3d 4c 08 01 c0 19 b8 c3 3e
       0.45583376 0.0665988 -2.0161314 0.38226393
0000f0 a1 b8 59 3e 48 65 b1 3f 48 c1 83 be 16 5e 69 be
       0.21261837 1.3859034 -0.257334 -0.22789797
000100 b5 30 e7 bd 0e 86 a5 3e bf 0e 13 3d 28 30 d1 bd
       -0.11288587 0.32328838 0.035902735 -0.10214263
000110 2b 76 87 bc de 1b f9 bb a5 c5 41 3e 0d 94 bb 3a
       -0.016535839 -0.007602199 0.18923052 0.001431109
000120 c6 c2 35 3d 30 63 f3 3e 2e 2e 5f 3d db b5 0c bd
       0.044375204 0.47536612 0.0544874 -0.03435312
000130 a4 57 c4 be f9 57 94 3d 4d 4e 32 3c 5c 63 90 3f
       -0.38348114 0.07243342 0.010882926 1.1280322
000140 7d a6 f0 3c f6 81 da 3b b0 30 ea 3f 1e 6a 15 3d
       0.029376263 0.0066683246 1.8296108 0.036478154
000150 74 8a 9d 3d d0 4f 1c 3e e8 7d d4 bd 9f 2c 36 3d
       0.076924235 0.15264821 -0.10375577 0.044476148
000160 45 9c 3c be 70 63 93 bd 41 3d 89 bd 62 81 b5 bd
       -0.18418987 -0.071967006 -0.067011364 -0.088625684
000170 bc 75 9a be 1c 49 7e bc de 1c 8a 3c 1d d3 2d 3d
       -0.3016795 -0.01552036 0.016859468 0.04243766
000180 5b 8d 2a 3d 88 f1 f6 bc 55 e3 c5 3d 7a d9 a9 3c
       0.041638713 -0.030144468 0.09662501 0.020733584
000190 9a d5 0c bf 7a 8b 78 3f 02 55 47 3e 82 8a 63 bc
       -0.5501343 0.97087824 0.19466022 -0.013888003
0001a0 39 3d 1f bf 99 dd 20 3e d0 25 a7 be 18 cd 7a bd
       -0.62202793 0.15709533 -0.32646036 -0.06123075
0001b0 a5 fd 33 c0 f2 f7 19 40 e8 8e 6e be 4d e6 93 be
       -2.8123562 2.4057584 -0.23296702 -0.28886643
0001c0 05 cf 08 be 82 69 af 3d 06 50 b1 bd f4 a3 17 be
       -0.13360222 0.08565046 -0.086578414 -0.14808637
0001d0 bb 1e 46 3f 80 f7 56 be 8e e8 68 3f c4 61 9f 3e
       0.7739064 -0.20992851 0.9097985 0.31129277
0001e0 9d 88 85 be 9e 5e 1a 3f bd 35 e1 bf f3 b7 11 be
       -0.2608079 0.60300624 -1.7594525 -0.14230327
0001f0 69 5f d8 3d 9c 94 de 3d cf 16 73 3e 14 53 73 bf
       0.10565073 0.10868189 0.2373917 -0.9504864
000200 fe 1f aa be db 8d 9c 3e af 85 44 b9 17 94 44 be
       -0.33227533 0.30576977 -0.00018741818 -0.19197117
000210 f8 7d 85 be 49 c0 f1 3d 8b 18 38 3d 6e d7 0f 3c
       -0.2607267 0.118042536 0.04494528 0.00877939
000220 28 85 45 3c f7 e4 09 3e 1e 77 b1 bd 4a 11 1c be
       0.012055673 0.1346625 -0.08665298 -0.1524097
000230 cb af e6 3d 84 78 9b 3d 01 35 c6 3d 10 a5 b1 be
       0.112639986 0.07591346 0.096780784 -0.34696245
000240 24 ac ab bf dd 3f 85 be 69 cc 0e bf 98 ce 50 bf
       -1.3411908 -0.26025286 -0.55780655 -0.8156524
000250 09 1f 36 3d 49 e5 ed 3e 30 38 9f bc 83 69 90 3e
       0.04446319 0.46463993 -0.019435972 0.282055
000260 f9 e1 28 bb 46 ae e0 bc 19 39 6f bf 59 4e 0f 3f
       -0.0025769456 -0.02742685 -0.934465 0.55978924
000270 dd 5e 45 3f 2b e0 85 3f 84 f0 00 bf 4d 59 a9 3e
       0.77097875 1.0459036 -0.50367 0.33075944
000280 af c4 81 3d ef e8 11 be f8 98 93 3e 6d ed 19 bd
       0.063363425 -0.14249013 0.28827643 -0.037579942
000290 50 c0 c4 be 6e 82 91 3e ce 54 79 be 40 67 40 bf
       -0.38427973 0.28419822 -0.24348757 -0.75157547
0002a0 20 d2 ff bd 49 11 ea bd ee a1 e1 be a8 0e 71 bd
       -0.1249125 -0.11429078 -0.44068855 -0.058851868
0002b0 1b 94 95 be 46 93 24 3e c7 30 9d be 18 a3 85 3f
       -0.29214558 0.16071805 -0.30701277 1.0440397
0002c0 73 69 a5 3d 23 b4 9c 3e 75 17 a2 bd 9b 09 37 be
       0.080767535 0.30606183 -0.0791463 -0.17874758
0002d0 de c1 75 3d d2 27 c4 be e3 d2 96 3e 96 66 18 bd
       0.05999934 -0.3831163 0.2945777 -0.03720721
0002e0 14 67 d0 3d 65 75 0a 3e 0e 91 c2 3d 47 10 c7 3e
       0.101759106 0.13521345 0.09500323 0.38879606
0002f0 74 2c c5 3e 42 80 7f be c7 af d0 3f 3b 60 8a 3f
       0.38510478 -0.2495127 1.6303643 1.0810617
000300 3f a5 35 3e e9 ad 9f 3c 4b 7e 8e be a8 16 6c bd
       0.17738818 0.019492107 -0.2783073 -0.057638794
000310 ac be e3 bd 72 e1 44 be c5 ee bd be a0 ea 36 3e
       -0.11120352 -0.19226626 -0.3709623 0.1786294
000320 4b 9b ab be 66 5b 0f 3e 34 39 be 3d 36 17 8b 3c
       -0.33516917 0.1399971 0.092882544 0.016978841
000330 f4 66 77 be a5 2c c2 3e b1 1b 8a 3e 2e 18 8d 3e
       -0.24160367 0.37924686 0.26974252 0.2755751
000340 da a4 8c be 0f f7 fd 3d bc 2c 32 bf 9b 65 97 bf
       -0.27469522 0.12400638 -0.6959951 -1.1827883
000350 4f a0 63 3c 14 62 06 bf aa af 45 be 48 3d 3b 3d
       0.013893201 -0.52493405 -0.19305292 0.04571274
000360 c0 85 b4 bd 8b 60 78 be d7 d5 6f bf 9c 31 7b 3f
       -0.08814573 -0.24255578 -0.9368567 0.9812257
000370 10 4e 3c bf da 3d d4 bd c3 f5 59 3e c0 57 bf bd
       -0.73556614 -0.1036336 0.21285157 -0.09342909
000380 44 a7 b2 3e b5 86 75 3c 18 f6 7d 3d 34 4c 20 3c
       0.3489324 0.01498573 0.06200227 0.009783793
000390 cb 76 de 3d ef fe 6a 3d f1 dd 91 3e ca 44 8e 3c
       0.10862502 0.05737203 0.2848964 0.017366786
0003a0 6b 21 89 bf 7b 6a 25 bf 7a 83 6e 3d 5e 32 40 3e
       -1.0713323 -0.646156 0.058230855 0.18769214
0003b0 15 7c 86 3f 98 8a 8a 3d 9b a0 11 be 1b a3 a3 be
       1.0506617 0.06764716 -0.14221422 -0.31960377
0003c0 ae 22 b0 be 7f 0e 0c 3f 2e c2 ef be 94 db ad 3f
       -0.34401459 0.5470962 -0.46827835 1.3582635
0003d0 97 7e b9 be f7 4b af be ca d5 42 bf fe c9 a7 bf
       -0.36229393 -0.34237644 -0.76107466 -1.3108518
0003e0 a4 85 84 3e 01 2b 95 3e 0e 3a 31 bf 87 af e0 3b
       0.2588321 0.29134372 -0.6922921 0.006856862
0003f0 fb 68 cc be d7 39 84 be 57 c1 00 be 6c ae fd be
       -0.39923844 -0.25825378 -0.12573753 -0.49547136

Const_15 f4 [256]
000000 b3 8b 3a c0 bb f2 6a bf 7a 8a 54 bf 12 7b 4c bf
       -2.9147766 -0.9177663 -0.830238 -0.7987529
000010 a2 8b 52 bf c0 f9 42 c0 a4 b0 25 bf d6 cf f3 be
       -0.8224431 -3.0464935 -0.6472266 -0.47619504
000020 93 73 b6 bf 35 e5 51 c0 56 84 92 bf 5a 5c 1e c0
       -1.425402 -3.2796147 -1.1446636 -2.4743867
000030 fd 4c 39 bf 72 85 da bf 89 4f 33 c0 64 ab dc bf
       -0.723831 -1.7071974 -2.8017294 -1.7239804
000040 be 10 b2 bf 65 40 44 be b0 1d 89 c0 54 b5 b3 bf
       -1.3911359 -0.1916519 -4.284874 -1.4039712
000050 f5 ac 32 bf cf ae 36 bf bf 4a dd be 75 69 3a c0
       -0.6979516 -0.71360487 -0.4322109 -2.9126866
000060 aa e1 c4 bf c0 bc 8a be b5 da c2 bf d8 2c 08 c0
       -1.5381367 -0.2709713 -1.5222994 -2.127737
000070 f4 98 e2 bf 76 fe a0 bf 8c 51 85 bf 40 f7 dd bf
       -1.7702928 -1.2577655 -1.0415511 -1.734108
000080 d5 26 0d c0 7d f4 2b bf 67 f3 ed bf 60 c2 02 c0
       -2.205495 -0.67169935 -1.8589906 -2.0431137
000090 99 ec dd bf 3b 99 ce bf 15 ad 6a bf 09 8d 54 bf
       -1.7337829 -1.6140512 -0.9167035 -0.830277
0000a0 4a 2b 83 bf 7c 4e a5 bf 8c 99 08 c0 ed 03 5a bf
       -1.0247586 -1.2914577 -2.1343718 -0.8516224
0000b0 c0 0a 91 bf 02 28 20 bf f4 8c 7a bf bb 76 1c c0
       -1.1331406 -0.6256105 -0.9787133 -2.4447467
0000c0 4b 14 87 be 12 ee 61 bf 69 34 69 be 22 3b 00 c0
       -0.2638267 -0.8825389 -0.22773899 -2.0036092
0000d0 19 74 b7 bc c5 94 a2 bf e0 ce e1 bf a9 54 52 bf
       -0.022394227 -1.2701651 -1.7641258 -0.8216043
0000e0 1e a4 18 c0 27 0c 20 c0 fb f0 a2 be fa cb d6 be
       -2.385017 -2.5007417 -0.31824479 -0.41952497
0000f0 5a 1c 19 c0 45 c8 25 c0 c3 85 eb bf ad fb 71 c0
       -2.3923554 -2.5903485 -1.8400196 -3.780986
000100 1e 89 29 40 c0 b2 d8 3d 6c 31 a5 bf b8 dc 15 3f
       2.648994 0.10580969 -1.2905707 0.58539915
000110 c5 47 97 3e b2 83 ca 3f d7 61 31 bf 2e 30 ab be
       0.29546943 1.582144 -0.69289917 -0.33435196
000120 b1 f5 d6 bf 0e 87 48 40 9b e7 8b 3f e5 ed f1 3f
       -1.6793729 3.133243 1.0930055 1.8900725
000130 b0 26 47 bf a0 d1 7a 3f 35 da 57 40 9f cf 47 bf
       -0.7779341 0.9797611 3.3726933 -0.7805118
000140 b9 01 1c 40 4a 83 a2 bf d3 85 60 40 61 82 98 3f
       2.4376051 -1.2696316 3.508168 1.1914788
000150 1b 49 a9 bf 79 a9 2e 3e 00 85 18 bf af c0 5c 40
       -1.3225435 0.17056836 -0.5957794 3.4492605
000160 d9 d8 0b 40 1f 13 08 bf a5 f9 be 3e 0e 82 1f 40
       2.1851103 -0.53154176 0.3729984 2.492313
000170 44 a2 13 40 97 02 28 40 67 73 09 3e f8 94 23 40
       2.306779 2.625158 0.13422929 2.5559673
000180 2b 04 2a 40 e6 7b 53 bf 11 80 2b 40 7a 8c 48 3f
       2.6565044 -0.8261093 2.6796916 0.7833935
000190 5f 4b 03 40 da 42 fe 3f 77 de b7 bf 91 0d 44 bf
       2.0514753 1.9864151 -1.4364766 -0.765832
0001a0 79 20 04 40 38 1b 51 be b6 ea f4 3f eb 06 ad bf
       2.064482 -0.2042054 1.9134128 -1.3517736
0001b0 0d b7 26 3f 9c e4 27 bf ca 41 07 bf 7c 75 2d 40
       0.65123063 -0.65583205 -0.5283476 2.7102957
0001c0 56 18 a6 3d c9 cc 69 be 10 9f a0 bf ed 76 10 40
       0.081101105 -0.22832026 -1.2548542 2.2572587
0001d0 92 ee d1 bf b0 ad c7 3e 65 c2 d0 3e 06 97 9e 3e
       -1.6400931 0.389997 0.4077331 0.30974597
0001e0 dc 40 1d 40 e7 61 53 40 33 01 55 bf fe 33 61 bf
       2.4570837 3.3028505 -0.83204955 -0.8796996
0001f0 76 c1 27 40 7a c3 39 40 e7 33 b3 3f 74 50 56 40
       2.621183 2.902556 1.4000214 3.3486605
000200 39 1f 85 3c 91 4b 10 3d 8a 65 ab bd 1c 4f 3a 3e
       0.01625024 0.035228316 -0.083689764 0.1819424
000210 32 e6 78 3e 40 01 93 bd c8 9e 03 3e 03 36 18 be
       0.24306563 -0.07177973 0.12853539 -0.14864354
000220 e4 33 11 3d 13 ae d0 3d f2 bb 48 bd 27 60 97 3d
       0.035449877 0.10189452 -0.049007364 0.073913865
000230 61 64 74 3c 14 80 8f bc 97 df 88 3d a1 d3 65 3e
       0.01491651 -0.017517127 0.066832714 0.22444011
000240 56 b3 f5 3d 5a 83 e7 bd af a6 a6 3c 1c f0 99 3d
       0.11997096 -0.1130435 0.020343153 0.075165
000250 94 2b bf bd 82 70 11 3e f1 62 2a 3d 6d 49 dc 3d
       -0.09334484 0.14203075 0.041598264 0.10756192
000260 a5 91 34 bd a2 30 dc bd 2b 48 41 3e ff 46 0d bc
       -0.04408421 -0.107514635 0.18875186 -0.008622884
000270 49 3a 35 bb 93 40 92 3d ca 72 55 be ff ba af 3c
       -0.002765315 0.07141223 -0.2084457 0.021451471
000280 18 ed 81 3d 3a eb 29 bd 54 3a 66 3d 6d 6f 30 bd
       0.0634405 -0.041484095 0.05620797 -0.043075014
000290 f5 78 93 3d d6 e1 dd bd 49 bc 83 bd 03 20 cb bd
       0.07200805 -0.108340904 -0.06432397 -0.09918215
0002a0 37 1d 73 bc 47 d8 39 be bb 10 f9 3d fe 99 1f 3d
       -0.014838508 -0.1814891 0.12161394 0.038965218
0002b0 62 94 d7 3d 98 52 b0 bd 07 1c c7 bd 75 35 1f 3d
       0.10526349 -0.086095035 -0.09722143 0.03886934
0002c0 06 04 94 3d 52 04 f2 3c 72 a7 9e be e4 3f 77 3e
       0.0722733 0.029543076 -0.30987126 0.24145466
0002d0 5d 2c a6 3e 88 4d 20 bd 4d 76 7e bc 41 55 e7 3c
       0.32455721 -0.03913644 -0.015531135 0.028238894
0002e0 7c d7 55 be ad b8 99 3d 77 90 a6 3d c9 b3 82 3d
       -0.20882982 0.07505927 0.08133023 0.063819475
0002f0 4c 31 d0 bd 5f 03 98 3c 07 12 8d be 8c f6 34 bd
       -0.10165653 0.018556295 -0.27552816 -0.044180438
000300 51 1e a1 bf 66 3a 9b bf b0 4f 85 bf c8 ad 0a c0
       -1.2587377 -1.2127197 -1.0414944 -2.1668568
000310 6c 86 0a c0 5f c4 4b bf 76 14 b5 bf 9b ea 0f c0
       -2.1644545 -0.79596514 -1.4146869 -2.2486942
000320 31 08 4f bf 65 e9 8c bf 77 10 00 c0 5d 7c 9a bf
       -0.80871874 -1.1008726 -2.001005 -1.2069203
000330 d2 d1 44 bf 43 05 c8 bf 72 ba 03 c0 48 83 80 bf
       -0.7688266 -1.5626606 -2.0582547 -1.0040064
000340 57 2d 04 c0 fa b9 e5 be 99 6d 4f bf 35 fc e2 bf
       -2.0652673 -0.4486845 -0.8102661 -1.7733217
000350 db 5e 6d bf 9e db ca bf 95 e1 af bf 16 70 f8 bf
       -0.9272286 -1.5848272 -1.3740717 -1.9409206
000360 01 79 06 c0 f6 dc 18 c0 29 2f ec bf e0 6f 09 c0
       -2.1011355 -2.3884864 -1.8451892 -2.1474533
000370 b0 79 e8 bf 42 b0 2f c0 d8 34 9e bf e2 4c d1 bf
       -1.8162136 -2.745133 -1.2359877 -1.6351588
000380 34 8a a3 bf f5 60 9f bf 9b 12 26 c0 d3 00 ae bf
       -1.2776551 -1.2451464 -2.5948856 -1.3594002
000390 9a 78 c4 bf 9d 55 91 bf c1 2e 8e bf 32 b5 9b bf
       -1.5349305 -1.1354252 -1.1108018 -1.2164671
0003a0 f6 3a 24 c0 89 7b 2d 3d 2e de ff bf 4a 35 99 bf
       -2.5660987 0.04235414 -1.9989679 -1.1969388
0003b0 7c c4 00 c0 41 b3 97 bf a7 8b 9f bf b2 f2 b4 bf
       -2.0119925 -1.1851579 -1.2464494 -1.4136565
0003c0 39 c4 01 c0 9d c9 80 bf 72 66 af bf 56 f4 08 c0
       -2.0276015 -1.0061527 -1.3703139 -2.139913
0003d0 bc 95 95 bf b9 69 97 bf a9 9a eb bf 01 cf d7 bf
       -1.168632 -1.1829139 -1.8406574 -1.6860048
0003e0 cd 8f 9f bf 82 1a 50 bf 5e f9 f0 bf b2 e9 8b bf
       -1.246576 -0.8129045 -1.8826101 -1.0930693
0003f0 5c 81 ac bf b4 ff cf bf a1 a5 ed bf 7e dc 25 bf
       -1.3476977 -1.6249909 -1.8566171 -0.6478957

Const_16 f4 [1, 16, 1, 22]
000000 ad 6e 08 3f 3e 47 2c 3e 46 67 ca 3e 37 c4 cc bd
       0.5329388 0.16824052 0.39531916 -0.099983625
000010 4d aa 85 bc 74 7b cd bd 77 50 92 3d b0 3e 57 bd
       -0.016316557 -0.100333124 0.07144254 -0.052550018
000020 a0 da 89 3e f2 ec 50 3e e2 73 96 3e fa 04 30 be
       0.2692461 0.20402887 0.29385287 -0.17189398
000030 46 89 7a 3e 19 d2 56 3e 20 a5 41 3f cc 6d 1e 3f
       0.24466428 0.20978583 0.75642586 0.61886287
000040 eb fc 95 3f 42 26 11 3b 4a ed ec 3d 40 f4 af 3d
       1.171781 0.0022148048 0.11568697 0.08591509
000050 9a 3a 78 bd 87 6d 28 bd 2e 7e 1e be a0 ed 22 3e
       -0.06060276 -0.04112008 -0.15477821 0.15910959
000060 9d 4e 47 be 33 19 01 bd 95 e9 b8 bd c0 43 ba bc
       -0.19463582 -0.031518172 -0.09028927 -0.022737384
000070 ac d2 ea bd dd b9 b4 be 74 e1 11 be 23 e8 38 3d
       -0.11465964 -0.35298052 -0.1424616 0.045143258
000080 a8 22 9e bc 2b 13 b0 3b a4 ca 45 3e 18 3e 8b 3e
       -0.019303635 0.0053733787 0.19315583 0.2719581
000090 0c 4b 12 3f 32 cc c5 3e 32 a3 33 3f ae 62 d4 3d
       0.5714576 0.3863235 0.7017089 0.10370384
0000a0 e1 83 d5 bd ec 72 fa 3d cc 90 8d 3d d8 d7 6c bb
       -0.104255445 0.12228951 0.069123834 -0.0036139395
0000b0 02 7a 23 be 22 13 a9 3d 8e d3 88 be 71 9d da bd
       -0.15964511 0.082556024 -0.26723903 -0.10674561
0000c0 2d 22 5c be 02 d3 b9 bc 80 14 2f 3d ce b3 36 3e
       -0.21497412 -0.022683624 0.04274416 0.17842028
0000d0 89 44 25 3d 52 14 d8 bd e2 87 e4 bd 24 f9 a7 3c
       0.040348563 -0.10550751 -0.1115873 0.020504542
0000e0 77 a7 88 3e 13 c8 25 3e 1d 8f c3 3e 95 2b 8b 3e
       0.26690266 0.16189604 0.38195124 0.27181688
0000f0 71 32 28 3f 53 b1 3e bd e1 78 f9 bd ab 58 de bd
       0.6570197 -0.04655583 -0.12181259 -0.10856756
000100 06 8f 1b ba 10 d0 62 3c f4 b4 4f bc 74 36 1f 3d
       -0.0005934093 0.013843551 -0.01267742 0.03887029
000110 1c 72 1b 3e 84 9a d0 3d 42 ac 9c bc a2 2f 5b bd
       0.15180248 0.101857215 -0.019125108 -0.053512223
000120 9c 9f 94 be c1 2e 29 3e 44 5a 71 be 8a 9d 1a be
       -0.29028022 0.16521741 -0.2356959 -0.15099159
000130 c9 f5 16 bd ca fd f1 3d 64 71 88 3e b8 99 8f 3e
       -0.036855493 0.118159845 0.2664901 0.28046966
000140 bb de c8 3e 97 fd 95 3e bc df d2 3e f5 4a f8 3d
       0.3923243 0.29295036 0.4118632 0.12123672
000150 50 7f d6 bd a8 c0 85 3d cf 29 8c bd 6c 92 ce bc
       -0.10473502 0.06530887 -0.06843912 -0.025216304
000160 9a 65 17 3e 04 eb 63 3e 28 05 93 3e 45 2c 88 3c
       0.14784852 0.2225762 0.2871487 0.016622672
000170 d6 05 0b be 6f b9 29 3e e5 37 a9 be 2c f6 b8 3e
       -0.13576445 0.16574644 -0.33050457 0.36125314
000180 8b 48 e2 be af 68 9d 3e e2 c7 b1 3e e1 bc 56 be
       -0.4419597 0.3074393 0.3472281 -0.20970489
000190 55 61 ea 3d 0d 5b 2d 3e 7e a4 9b 3e 76 f7 b0 3e
       0.11444346 0.16929264 0.30398935 0.34563798
0001a0 cc ac fc 3d 48 d4 a0 3d d8 e5 1e 3d 74 06 e4 3d
       0.12337646 0.078529894 0.038793415 0.11134043
0001b0 c3 5f 1e be c7 08 04 be 29 bf 9e 3e 3c 61 cc 3d
       -0.15466218 -0.12893973 0.3100522 0.099794835
0001c0 14 52 98 3e 3b fe 5b bc 04 e8 1e be fa ce 45 be
       0.2975012 -0.0134273125 -0.15518194 -0.19317237
0001d0 eb 8a 81 be 2b fb ba 3d c1 34 91 be b9 1b 85 3e
       -0.25301298 0.09129938 -0.2836056 0.25997713
0001e0 76 68 d6 3d b2 fa 6e be 15 ff 14 3e 1f e6 55 3e
       0.10469143 -0.2333782 0.14550431 0.20888565
0001f0 88 9d 8b 3e 75 d5 11 3e 12 68 43 3e 73 51 d4 bc
       0.27268624 0.14241584 0.19082668 -0.025917744
000200 3f e6 84 bd 3e 79 c4 3d d4 19 a0 bd 41 48 03 bd
       -0.064892285 0.095934376 -0.07817426 -0.03205133
000210 de 86 3c be b1 ed 83 3e c2 39 1e be e4 69 73 bd
       -0.18410823 0.25767282 -0.1545172 -0.059427157
000220 9c 9f f0 bd 2c 3f 6a bd e8 38 c6 be c5 2f 1b 3f
       -0.11749193 -0.05718915 -0.3871529 0.60619766
000230 ea d3 fa be 23 38 2d 3d 98 25 84 bd 34 27 02 be
       -0.48989803 0.042289864 -0.06452483 -0.12710267
000240 59 f1 3b bc a7 6a 17 3e 68 18 46 3d 50 e7 20 3e
       -0.011471116 0.14786778 0.04836312 0.15713239
000250 01 c7 06 3d e5 65 20 3d dc 21 8c 3d ea 1b b7 3d
       0.03290463 0.039159674 0.06842396 0.08940871
000260 f1 bb 5b bb f0 66 b4 bd 25 ea 4a be ef 4b c8 3d
       -0.003352877 -0.08808696 -0.19815882 0.09780108
000270 5d 71 b7 be c2 ea 3d 3e e2 41 86 bd 72 ef 76 3e
       -0.35828677 0.18546584 -0.06555535 0.24114779
000280 1f 59 62 3f 12 4e 17 bf 0a 1e 3b 3f 57 8f 4c be
       0.8841724 -0.591035 0.7309271 -0.19976555
000290 c4 a3 28 3e 28 77 76 3e 38 a0 ef 3d fd d9 45 3e
       0.16468722 0.24068892 0.11700481 0.19321437
0002a0 11 ec 84 3d 04 ed 4a 3e 3b 7d a4 3e b1 f8 1e 3d
       0.064903386 0.19816977 0.32126793 0.03881139
0002b0 3a fe af bd 14 b9 9a bd 27 ac 84 3c b9 e1 e9 bd
       -0.08593412 -0.07554832 0.01619537 -0.11420006
0002c0 01 88 41 3d c5 64 1e 3e 29 44 6a 3d 8d a1 49 bd
       0.047248844 0.15468128 0.05719391 -0.049226332
0002d0 5a 63 52 be 8b 44 df bd 38 e9 0d bf 17 ff 32 3f
       -0.20545712 -0.109017454 -0.5543399 0.69920486
0002e0 4f 82 d6 be 5b 25 9d 3e f7 0f 04 3f 91 40 8c be
       -0.41896293 0.30692562 0.5158686 -0.2739301
0002f0 6d 64 10 3d cd d8 e8 3d 0e f2 a6 bd 80 08 bc 3d
       0.035252023 0.113694765 -0.08151637 0.09181309
000300 fc 05 37 3e a9 46 34 3e 2a 34 a7 3d c4 a5 5f 3d
       0.17873377 0.1760508 0.081642464 0.054601446
000310 2f b1 f2 bd 25 d5 c9 bd 4a 92 0e 3e 0a c3 d7 3d
       -0.11850201 -0.09855107 0.13922992 0.105352476
000320 89 e6 11 3e c8 f1 79 3d b6 87 95 bc 0a 36 0d 3e
       0.14248098 0.061021596 -0.018253189 0.13790146
000330 32 10 7a be f4 63 04 3e 80 63 78 be 2e 12 03 3e
       -0.2442024 0.12928754 -0.24256706 0.12799904
000340 3d 71 9c 3d 14 7d 83 bb 7e db ae bd e1 59 35 bc
       0.07638786 -0.004012713 -0.085379586 -0.011068792
000350 18 97 8c be df 02 08 be 80 b4 ba 3d 65 47 fb bc
       -0.27459025 -0.13282345 0.09116459 -0.030673692
000360 54 69 0c 3d 80 55 cd bd 62 fe 03 be 02 84 b0 bc
       0.034280136 -0.100260735 -0.12890008 -0.021547321
000370 0e 84 64 3d ee 26 0e 3e 59 b5 58 3d 62 9d fc bd
       0.05579 0.13882038 0.05290732 -0.12334706
000380 f8 87 79 be fa a9 64 bd 08 59 33 be ca 19 86 3c
       -0.24368274 -0.055826165 -0.17514431 0.016369719
000390 d7 aa 93 be 19 80 32 3e ab ab ee 3b 2d f2 45 be
       -0.28841278 0.17431678 0.007283648 -0.19330664
0003a0 01 0f 99 bd dc 67 b1 3d 8d 95 c8 be f6 ba 96 be
       -0.07473565 0.08662388 -0.39176598 -0.29439515
0003b0 81 bd e5 3d c0 ac 11 3c 75 ec f0 bd ee 9e 7c bd
       0.112177856 0.0088912845 -0.117638506 -0.061675005
0003c0 39 28 38 bc aa a4 89 bd 7e 87 01 3e eb dc 4b 3e
       -0.011240059 -0.0672086 0.12649342 0.19908492
0003d0 80 28 d2 3d af c6 1a 3e 4a 03 1f bd 6c 00 b7 3d
       0.10261631 0.15114854 -0.038821496 0.08935627
0003e0 e3 cc 68 be 52 b8 84 bd 0f 7a e4 bd a2 d8 8e be
       -0.22734408 -0.06480469 -0.11156093 -0.27899653
0003f0 5e 8e a3 be 8c 3b 7f 3e ed d2 e2 bd d8 77 5f 3e
       -0.31944555 0.24925059 -0.11075387 0.2182306

Const_17 f4 [32, 1, 1, 22]
000000 8a 93 01 be f5 c2 0b 40 16 6c f8 bd 81 23 8d bc
       -0.12653938 2.1837742 -0.12129991 -0.017228844
000010 a5 83 41 3e 0b 4e 6c 3d 5c cf 8b bc 9a 32 e4 3e
       0.18897875 0.057691615 -0.01706665 0.44569856
000020 b4 2a a8 bd a6 2b 81 3d 5f fe 3f 3e 3f 54 ca ba
       -0.0821127 0.063071534 0.18749379 -0.0015436484
000030 56 d2 1c 3d 03 33 3e 40 6c 09 57 be 9a db e5 3d
       0.03828653 2.9718635 -0.20999688 0.11223526
000040 94 6e 3b 3f 18 68 83 3d cc ba 87 bd 34 5e d8 3d
       0.73215604 0.06416339 -0.066274256 0.10564843
000050 08 71 5e 3e b9 d3 92 bd e2 3b 09 bd 1a e8 5e be
       0.21722806 -0.07169289 -0.033504374 -0.21768227
000060 f4 0c 90 bc 15 e7 3d 3c 6b a3 29 3c 37 d0 df bb
       -0.017584302 0.011590739 0.010353903 -0.006830241
000070 4b af c7 bb 50 b5 b9 bc d8 d2 48 3b 15 87 98 3c
       -0.0060938946 -0.022669464 0.003064325 0.0186191
000080 3a 3b e9 3c 0a 5a 13 bb f9 73 5d 3c 72 35 01 c1
       0.028470624 -0.0022484087 0.01351642 -8.075548
000090 0f 4b 86 3d ed 4a 0b bd 05 49 bf be 3b df fb 3c
       0.06557285 -0.034007 -0.37360397 0.030746093
0000a0 00 39 b4 bc 74 18 80 3d 34 e3 48 be 66 f1 79 3d
       -0.021999836 0.06254664 -0.19617921 0.06102123
0000b0 bd e2 99 bd 98 65 54 bc 26 a2 e5 3e 5e 2d eb bc
       -0.0751395 -0.012963675 0.44850272 -0.028708156
0000c0 59 3b 17 be 2e 7f 9e 3e 06 85 a3 bf 82 7e 94 bf
       -0.14768733 0.30956405 -1.277497 -1.1601107
0000d0 fe fb 9b bf 6f 87 a4 bd de 7d 85 3c e2 a9 e9 3d
       -1.2186277 -0.080336444 0.01629537 0.11409356
0000e0 7c 0e 4a 3d c4 b0 99 bf 19 53 59 3e 4a a0 5a 3e
       0.04933022 -1.200707 0.21223105 0.21350208
0000f0 97 c0 3a bf e5 c7 74 3e ac c9 e1 bd d0 da 9c bc
       -0.7295012 0.23904379 -0.11024794 -0.019147307
000100 e5 29 10 3d 59 7e e8 3d de d8 ac bd c5 06 07 bb
       0.035196204 0.11352224 -0.08439802 -0.00206034
000110 b8 1d 6e 3d 76 04 96 3d f3 95 1e be 05 50 81 3d
       0.05813381 0.073250696 -0.15486889 0.06314091
000120 6d 87 7a bd 0a 02 fd bf 2d e5 7a 3c 95 17 60 3d
       -0.06116431 -1.9766247 0.015313429 0.05470999
000130 68 fc 53 bf 8e 45 ad 3a 41 59 c9 bd af 93 96 bd
       -0.82807016 0.0013219581 -0.09831477 -0.07352387
000140 16 ae 10 bc 86 77 cd 3d e0 cf 97 3f c0 7d f1 3a
       -0.008830568 0.10032563 1.1860313 0.0018424317
000150 c6 b0 44 3e ae c0 a1 be 3e 1a 3b 3d e1 1e 82 be
       0.19208059 -0.31592315 0.045679323 -0.25414184
000160 e9 7b af 3e 28 e1 0b bd 48 87 4b bf fd 45 60 3e
       0.34274223 -0.034150273 -0.795033 0.21901698
000170 47 a9 30 bd 10 09 32 bf 6a 36 81 3f d0 0d 81 3d
       -0.043130185 -0.6954508 1.0094731 0.06301463
000180 3d de 49 bf e2 24 03 40 f5 09 20 3e b8 0d 91 3e
       -0.78854734 2.0491261 0.15628798 0.2833078
000190 b1 a6 f1 3d 1e 1c 43 be 3e 76 da be 04 41 68 3e
       0.11799372 -0.19053695 -0.42668337 0.22681051
0001a0 95 64 55 3b 20 58 b8 3e 96 4c de bd 76 9a 0b 3e
       0.0032561172 0.36004734 -0.10854451 0.13633141
0001b0 d8 92 30 bd 7a 1a 80 3c 2f 7c aa be b1 df 8c 3d
       -0.04310879 0.015637625 -0.3329787 0.06878603
0001c0 ab 9e b9 be 24 62 88 3d 1c 22 e6 bc 41 60 65 be
       -0.36253867 0.06659344 -0.028092436 -0.22399999
0001d0 3c fb 91 3f 5f d5 2a be 32 70 2c 40 4d 99 c6 3d
       1.1404796 -0.16682957 2.6943479 0.096972086
0001e0 95 0e da 3d 5d e9 5f be b0 58 93 bd a1 88 1e 3d
       0.106473126 -0.21866365 -0.0719465 0.03870452
0001f0 f4 c5 05 bf 68 f7 e7 3e 6a 1d 21 be d6 28 85 be
       -0.5225518 0.45305943 -0.15733877 -0.26007718
000200 80 7e 18 3e e6 bc 80 be 2b 45 e9 3d 58 7c 9b 3d
       0.14892006 -0.25144118 0.11390146 0.07592076
000210 c7 49 cf bc 5e 5b 06 3c 58 0b e2 3c 1c 7b 03 be
       -0.025303734 0.008200495 0.0275933 -0.12839931
000220 0a fd 9b bd 28 a3 b7 be b8 ae f0 3d 4a 67 b4 bd
       -0.07616623 -0.35866666 0.11752075 -0.08808763
000230 b7 bf 09 3f 98 96 05 40 d0 05 79 3f b1 8c a2 3d
       0.5380816 2.0873165 0.97274494 0.07936991
000240 6c 22 40 3d 57 ac 26 40 1d 02 1f bd eb 89 c3 bd
       0.046907827 2.6042688 -0.038820375 -0.0954779
000250 69 45 37 3e f7 6b 86 bc 82 ed 49 3e 54 62 ee 3d
       0.17897572 -0.016408904 0.19719508 0.11639848
000260 b1 e3 24 bd 6f f6 de 3b 62 75 f4 bb d0 e1 01 bc
       -0.040256206 0.0068042795 -0.007460282 -0.007927373
000270 7e 74 76 3d 4a 10 8c be 23 72 74 bd ae e9 9e 3e
       0.06016969 -0.27356178 -0.05967916 0.31037658
000280 48 17 08 3f 1a f4 42 be 48 03 c5 be b0 e8 ba bf
       0.53160524 -0.1903843 -0.38479066 -1.460226
000290 89 84 82 3f 4b 5d 2a 40 8b 23 bb bd 88 54 98 3f
       1.0196697 2.6619442 -0.09137639 1.1900797
0002a0 da df c3 bb 75 50 b2 be 46 07 d2 3d 07 bc 1f bc
       -0.005977613 -0.3482701 0.102552935 -0.009749419
0002b0 76 f1 f7 bd 8d b8 8a 3e a7 62 6a bc 99 88 94 3c
       -0.12106602 0.27093926 -0.014305747 0.018131541
0002c0 97 38 1b be 23 af ab bd 02 08 84 3f 29 30 6b be
       -0.15158306 -0.08383014 1.0314944 -0.2296759
0002d0 2e ec e8 3c 3d 1f cd be 46 3b ec 3e 5b 0c c2 3f
       0.028432932 -0.40062895 0.46138972 1.516002
0002e0 b0 81 90 bf c8 b0 fb bd 21 d7 07 be 58 31 bb 3e
       -1.1289577 -0.12289578 -0.13265659 0.36561084
0002f0 8f b5 99 bb 4c e0 84 bf 26 ae 46 be 24 f7 db 3e
       -0.004690833 -1.038095 -0.1940237 0.4296199
000300 97 ea 88 3f 15 eb 19 3f 7b 70 66 be 2b 88 7a be
       1.0696591 0.6012433 -0.22503845 -0.24466006
000310 e2 e9 b0 be bc 08 ae bd 84 30 cc be 93 ed 8c be
       -0.34553438 -0.0849776 -0.39880764 -0.27525005
000320 84 8a f8 be a3 03 fd 3e 4c e2 2a 3e ac 4b 08 3c
       -0.4854318 0.49416837 0.16687888 0.008318823
000330 fe 6f 33 3f 5f 30 ba 3e dd 9b 85 bf d4 37 23 3e
       0.7009276 0.3636503 -1.0438191 0.15939265
000340 23 e3 2c be 43 10 13 be 16 99 a1 3f 5e a1 07 bf
       -0.16883521 -0.14361672 1.2624843 -0.529806
000350 f1 7a 6c 3f 54 fb 83 3d cb f3 a0 bf 47 d0 0c 3e
       0.92375094 0.064444214 -1.25744 0.13751327
000360 2c d3 c6 bd 11 a2 9b 3e ff 62 ed bd b1 8b 03 bd
       -0.097082466 0.30397084 -0.11591148 -0.032115642
000370 43 32 b9 bd 26 44 9b 3d 04 93 c2 3d ae c9 41 be
       -0.0904279 0.07581358 0.09500697 -0.18924591
000380 3a e2 0e 3d 35 c4 19 bd ab d0 f0 3f 50 2e 1d 3c
       0.034883715 -0.037540633 1.881368 0.009593561
000390 3d 3b dd bf e5 be 80 3d 21 6d 84 3d 81 ab 3d 3d
       -1.7283703 0.0628641 0.06466127 0.046306137
0003a0 00 2b 83 be 20 25 b3 bd a2 e2 89 be ee 58 fb 3b
       -0.25618744 -0.087473154 -0.2693072 0.0076705134
0003b0 37 af 6d bd 8e fd 3c 3e 16 f0 c5 bd 00 27 2a 3c
       -0.058028426 0.18456098 -0.096649334 0.010385275
0003c0 64 8b 94 3d 60 ac 07 3d 93 14 3c 3e 48 65 94 bd
       0.07253149 0.033123374 0.18367223 -0.0724588
0003d0 68 be b3 be be a9 bc 3c 69 fc 4c bd ee 62 a1 3e
       -0.35106206 0.023030158 -0.050045405 0.3152079
0003e0 08 6e 27 bf 5e 1a 8b 3f 39 c7 0d 3f 9b 8d be bd
       -0.6540227 1.0867422 0.55382115 -0.09304353
0003f0 c0 a7 28 be 86 8b 8b be 13 8a bd 3e 2a 76 a1 bf
       -0.16470242 -0.27254885 0.37019405 -1.2614186

Const_31 f4 [256]
000000 ee b9 b3 bf e5 ed f3 bf 6e cd cc bf 57 a0 cd bf
       -1.4041116 -1.9056975 -1.6000192 -1.6064557
000010 89 6f bc bf 07 eb 08 c0 0b a7 7e bf 02 4e e6 bf
       -1.4721538 -2.139345 -0.9947364 -1.7992556
000020 0a 7b 96 bf 69 20 18 c0 ff be ce be 7b 82 1a c0
       -1.1756299 -2.3769782 -0.40380093 -2.414214
000030 c3 f9 c1 bf 6a 8d b1 bf dc 02 ea bf d5 5f 6d bf
       -1.5154346 -1.3871281 -1.8282123 -0.92724353
000040 a5 95 e3 bf 2a b1 b3 bf 7d a0 a1 bf 16 6a c4 bf
       -1.7780043 -1.4038441 -1.2627102 -1.5344875
000050 4f 0d d1 bf 89 a3 07 c0 9f 18 50 c0 34 c1 b4 bf
       -1.6332186 -2.1193564 -3.2515028 -1.4121461
000060 1c 4e b6 bf 85 2b 85 bf ff 88 d3 bf b8 76 89 bf
       -1.4242587 -1.0403906 -1.6526183 -1.0739355
000070 4d 12 d8 bf 02 0b 64 c0 60 cd f1 bf c9 b6 d7 bf
       -1.6880585 -3.5631719 -1.88908 -1.6852657
000080 e4 cf b3 bf 47 08 15 c0 b9 86 4a bf e5 b6 ad bf
       -1.4047818 -2.3286302 -0.7911182 -1.357144
000090 21 1f a2 bf 2b ea 29 c0 d7 be 0f c0 2a 73 a2 bf
       -1.266575 -2.6549175 -2.246023 -1.2691395
0000a0 76 16 68 bf 04 b3 f3 bf c2 33 22 c0 7a 01 78 bf
       -0.9065927 -1.9039006 -2.534409 -0.96877253
0000b0 38 10 18 bf ed 50 61 bf 51 75 bd bf 88 98 d7 bf
       -0.5939975 -0.8801411 -1.4801427 -1.6843424
0000c0 d1 e5 b7 bf 76 7e 01 c0 37 50 14 c0 49 66 91 bf
       -1.4367009 -2.0233436 -2.317396 -1.135934
0000d0 7f ab e6 bf cc 86 01 c0 11 37 c0 bf 44 54 93 bf
       -1.8021086 -2.0238523 -1.5016805 -1.1510091
0000e0 d1 bc eb bf a3 bf 50 bf 20 b8 7f bf 51 80 39 bf
       -1.8416997 -0.81542414 -0.9989033 -0.7246142
0000f0 d5 37 55 bf 7e 7d 02 c0 90 ca ab bf b3 2e b0 bf
       -0.8328832 -2.0389094 -1.3421192 -1.3764251
000100 9c a0 49 3f a7 4a 33 40 d8 a1 f8 3f 87 86 03 3f
       0.78760695 2.8014314 1.9424391 0.5137715
000110 77 5f 56 3f de 9a 4a 40 a0 02 6c 3f 07 b5 04 40
       0.8373942 3.1657023 0.92191505 2.073549
000120 98 90 8a 3e e2 70 3f 40 6c 59 8e bf e0 6c 3f 40
       0.2706344 2.9912648 -1.1121039 2.9910202
000130 5b fa 9a 3f 95 1a 3a 40 bd b1 8b be c7 fc 63 be
       1.2107652 2.9078724 -0.2728404 -0.22264396
000140 44 20 b1 3f 52 79 7a 3f 71 3b 9a 3f 2f e2 ce 3f
       1.3837972 0.9784137 1.204939 1.6162776
000150 c3 63 d9 3f 10 dc 1c 3f 52 9f 50 40 fa aa a7 3e
       1.698357 0.6127329 3.2597241 0.32747632
000160 29 12 cf 3f 75 4f c2 3e 00 64 fd 3f 65 e1 39 3d
       1.6177417 0.37951246 1.9796143 0.04538097
000170 7e 66 ab 3f 24 01 86 40 2d fc 56 3f 37 c1 90 3f
       1.3390653 4.187639 0.8397854 1.1308964
000180 59 e5 f5 bd 39 93 34 40 06 fb d4 bf d7 8f cd be
       -0.12006635 2.8214858 -1.6639106 -0.40148804
000190 b8 52 c4 3e d1 37 60 40 66 c8 19 40 f6 c5 69 3f
       0.3834436 3.5034068 2.4028563 0.9131769
0001a0 d6 0f d5 3d d6 a3 01 bf 91 d8 f0 3f 05 80 a2 be
       0.10403411 -0.5064062 1.8816091 -0.31738296
0001b0 1e c7 ae bf 79 42 af bf 82 3d fe 3f 87 25 c9 3f
       -1.3654516 -1.3692161 1.9862521 1.5714577
0001c0 2f 66 02 c0 25 8f 35 3e f4 d1 0d 40 83 20 2d 3f
       -2.0374868 0.17730387 2.2159395 0.67627734
0001d0 33 b9 d9 3f cb f1 26 40 48 0c 40 40 03 55 d0 bf
       1.7009643 2.6085079 3.0007496 -1.6275944
0001e0 94 d9 e2 be ba 41 c9 3e 99 08 36 3d d7 12 c7 be
       -0.44306624 0.39307958 0.044441793 -0.3888156
0001f0 68 11 8b 3f dd 56 04 40 33 68 02 3e a6 ff e6 be
       1.0864687 2.0678017 0.12735061 -0.4511692
000200 4e 6b 30 bf 2d 66 15 bd 35 0c 57 bd 4a 79 46 3f
       -0.68913734 -0.036474396 -0.052501876 0.7752882
000210 cc 05 72 be 68 31 b2 bc bd 3d d2 3e b2 fb aa bd
       -0.23635024 -0.021752074 0.41062728 -0.08348788
000220 fd 8f 44 3e 0a 70 85 bc d0 63 b0 bc 24 b9 1e 3c
       0.19195552 -0.016288776 -0.02153197 0.009687696
000230 4b 40 58 bd 2b 79 e5 bd 60 9f 45 bd 47 d0 31 3e
       -0.05279569 -0.112047516 -0.048247695 0.17364608
000240 55 da 21 bd 67 e7 c2 bc 59 01 f5 bc c6 dd 0b 3e
       -0.03951486 -0.023791982 -0.02990787 0.13658819
000250 01 18 92 bc 8e d8 15 bd d1 f1 a7 3b 5a 20 06 3e
       -0.017833712 -0.036583476 0.0051252623 0.13098279
000260 01 15 f7 bd 77 a6 71 3d bd 3b 2d 3d 27 c9 d0 bd
       -0.12064553 0.058996644 0.0422933 -0.10194617
000270 2e 09 01 3c f0 5f c6 3c 49 0a 2e be cb c0 43 3d
       0.007875724 0.024215668 -0.16996111 0.047791284
000280 5d ef 62 be 7a 68 78 bb e5 74 45 3d 98 d3 ed 3d
       -0.22161622 -0.003790407 0.048207182 0.11612624
000290 68 b2 1d bd 1a d3 ba 3d 67 b1 a6 3c f1 1c 01 be
       -0.03850022 0.09122296 0.020348264 -0.12608697
0002a0 78 14 8f be 7a 16 ad 3c d3 b7 09 3d 84 9c 04 bf
       -0.27945304 0.021128882 0.033622574 -0.51801324
0002b0 a5 36 b2 be 59 de 4e 3f 2e 0b 32 be 53 12 08 3f
       -0.34807315 0.80808026 -0.17387077 0.5315296
0002c0 33 e2 dc bd b7 d9 8d bd 4e 0c 7a 3d 04 0f cd 3d
       -0.107853316 -0.069262914 0.06104689 0.1001263
0002d0 d4 16 45 3b de 90 95 bd 1f 46 ae bd 80 a6 b5 3e
       0.003007342 -0.07303022 -0.08509468 0.35478592
0002e0 a6 62 81 bc 1f 2c 8a bd 04 9e 60 bb a4 7b 07 3f
       -0.01579411 -0.06746697 -0.0034273872 0.52923036
0002f0 8c 27 f4 bc 00 93 01 bd 37 7f 94 be bf 25 00 3f
       -0.029804014 -0.03163433 -0.29003307 0.50057596
000300 7e 8d b7 be cf 3a c3 bf 46 d5 d7 bf d5 69 f0 bf
       -0.35850137 -1.5252322 -1.6861961 -1.8782297
000310 b2 fe a6 bf bc 04 cb bf 92 27 04 c0 78 5e 4e bf
       -1.3046477 -1.586082 -2.0649152 -0.806129
000320 cf 0b b9 bf 62 f0 e8 bf f4 4f 84 bf 06 f8 e0 bf
       -1.4456729 -1.8198359 -1.03369 -1.7575691
000330 a3 99 9e bf 31 d7 fb bf ca 36 65 bf 71 1d db bf
       -1.2390636 -1.9675046 -0.89536726 -1.711836
000340 fa ac af bf b0 9e 80 bf 1c 96 b9 bf 20 19 e1 bf
       -1.3724663 -1.0048428 -1.4498935 -1.7585793
000350 5a 14 d6 bf ce ce 3b bf 69 9b cc bf c9 4e 85 bf
       -1.6724961 -0.73362434 -1.5984927 -1.0414668
000360 3e 34 b7 bf 22 a7 82 bf 42 bb e3 bf 81 47 b0 bf
       -1.4312818 -1.0207255 -1.7791522 -1.3771821
000370 89 cf 9e bf 4f 4e 36 bf 5a 7b 27 bf 06 22 af bf
       -1.2407085 -0.7121324 -0.65422595 -1.3682258
000380 fa f1 98 bf a6 02 e1 bf dc 55 bd bf f9 81 c8 bd
       -1.1948845 -1.7578933 -1.4791827 -0.09790415
000390 55 dd 12 bf 37 30 ee bf 5b cc a2 bf 93 38 1f bf
       -0.57368976 -1.8608464 -1.2718614 -0.621957
0003a0 fd 9d 0b bf 5d 6d 53 bf 59 98 ca bf 06 a8 d7 bf
       -0.54537946 -0.8258875 -1.5827743 -1.6848152
0003b0 68 31 9c bf 75 7d 4a bf 28 bc bb bf f7 c1 96 bf
       -1.2202578 -0.7909768 -1.4666796 -1.1777943
0003c0 26 27 f2 bd 61 7b e7 be ba f2 c4 bf 26 bd 74 bf
       -0.11823873 -0.45211318 -1.5386574 -0.9560112
0003d0 b7 07 f3 bf 3c 59 04 c0 18 d2 18 c0 d1 72 3b bf
       -1.8986729 -2.0679464 -2.387823 -0.7322207
0003e0 87 e5 49 bf 42 e2 12 c0 f4 76 7b bf e0 f0 c3 bf
       -0.78865856 -2.2950597 -0.98228383 -1.5307884
0003f0 8f 9f b7 bf 23 91 84 bf e8 e3 59 bf cd c9 ce be
       -1.4345568 -1.0356792 -0.8511338 -0.40388337

Const_32 f4 [1, 8, 1, 22]
000000 f0 5a 3c 3c 7e 75 c4 3d f9 ec 10 3c 11 c3 96 3d
       0.011496291 0.09592722 0.008845561 0.07361425
000010 64 69 ab 3d a2 13 cb 3c ff d2 6b be cb 83 82 be
       0.08369711 0.024789635 -0.23029707 -0.25491175
000020 86 8a d4 bd 01 9e 09 bc a4 5f ad bd 53 aa 14 bc
       -0.10377984 -0.0083994875 -0.084655076 -0.009073812
000030 fe b1 09 bf ad 56 cf bf c2 68 fa 3e a1 ef df bb
       -0.5378722 -1.6198326 0.4890805 -0.006833986
000040 95 93 86 bf 73 6c b9 3f f4 a6 63 3d fc 67 02 be
       -1.0513788 1.4486221 0.05557914 -0.1273498
000050 03 d7 c3 bc 1c 39 bd bd 33 a1 13 3d 2d fe 85 bd
       -0.023906237 -0.092394084 0.036042403 -0.06542621
000060 c2 b0 20 bd 2e 24 bc bc 07 d5 59 bc 4d 26 e7 bc
       -0.03923107 -0.02296647 -0.013295419 -0.028216505
000070 34 37 16 3e 78 4f d8 3d 53 4b d9 3d 8e c1 56 3d
       0.14669496 0.105620325 0.1061007 0.052430682
000080 05 58 43 bd 0b 19 45 3d 7c 0d 10 bf da 06 27 bf
       -0.047691364 0.048119586 -0.56270576 -0.6524483
000090 6e 23 f0 3e 73 a6 6f bc c4 bd db be e7 2d a0 3e
       0.4690203 -0.014627087 -0.42918217 0.3128502
0000a0 28 f2 1e be 54 52 13 be c4 e8 93 bc 93 55 d2 bd
       -0.15522063 -0.14386874 -0.018055327 -0.10270228
0000b0 2a dc d4 bc d2 3a 05 bd bb 11 4a bd 46 c0 25 bb
       -0.025983889 -0.0325268 -0.049333315 -0.0025291606
0000c0 fb 81 62 bc 2c ff 75 bd bc 83 74 3e 73 12 20 3e
       -0.013824935 -0.060057804 0.23878378 0.15632038
0000d0 fd dc 83 3e e6 34 eb 3c be 0d 90 3d 6a c5 c4 3c
       0.25754538 0.028711747 0.07033871 0.024019916
0000e0 2c 6d 09 be 60 2c 22 be dc 58 cb 3d 34 39 6b be
       -0.13420552 -0.1583724 0.09929058 -0.2297104
0000f0 0a e9 7d be 33 46 99 bd 00 54 9b 3c 97 76 1d be
       -0.24795929 -0.074840926 0.018960953 -0.1537727
000100 a0 8e b3 bc 16 63 d4 bd a1 f7 18 3d ac bd 86 bd
       -0.021918595 -0.10370462 0.037345532 -0.06579146
000110 75 9c 9f bd 5b 4f ef bc d6 95 02 bd b4 cb 98 bd
       -0.07793514 -0.029212644 -0.031881176 -0.07460728
000120 ae 55 87 3d f7 4e db 3d ce 2a 55 3d a6 ea 93 bc
       0.06608139 0.10708421 0.052042775 -0.018056225
000130 da dc 91 3c ea af 45 bd b1 11 02 3d c8 24 5f bd
       0.017805506 -0.048263468 0.031755153 -0.054478437
000140 23 5b ad bd d3 85 52 be c2 d8 16 3e 61 7d 4a be
       -0.084646486 -0.20558862 0.14731124 -0.19774391
000150 d2 d9 c4 3d 0e be 10 be 66 10 d8 bc fd 16 d7 bd
       0.096118584 -0.14135 -0.026375007 -0.105024315
000160 df 6a 87 3c b2 7f da bc c4 4c 81 bd 45 f7 3e bc
       0.016530452 -0.026672218 -0.0631347 -0.011655633
000170 fc d5 65 bc 59 77 7d bd 52 8a 22 3e 4a c3 3c 3e
       -0.014028069 -0.061881397 0.15873078 0.18433872
000180 d9 5f 1a 3e 3c df 65 3d 76 c7 23 be 90 58 59 3d
       0.15075625 0.056121096 -0.15994057 0.053062975
000190 56 94 b2 3e b4 be f0 bd fa 56 99 be 50 a2 93 bd
       0.34878796 -0.11755124 -0.2994917 -0.07208693
0001a0 c9 bf 64 3e 51 2a 0e be 42 fa 23 be 70 df 2f 3d
       0.22338785 -0.1388333 -0.16013435 0.042937696
0001b0 8c 6a 0a bd 1e a2 d8 bd b6 28 9d 3c 67 2c a2 bc
       -0.033793017 -0.105777964 0.019184452 -0.019796563
0001c0 80 69 30 bd 19 43 58 3c 70 37 14 bd ad 81 2b bd
       -0.043069363 0.013199591 -0.03618568 -0.041871715
0001d0 5e fb be 3c 60 a5 dc bd a0 cf 15 bd 99 12 97 bc
       0.02331322 -0.1077373 -0.03657496 -0.018441485
0001e0 e7 b9 09 bd 76 fa 37 3d a3 79 1a 3f 9f d1 9f 3c
       -0.033624556 0.044916593 0.6034185 0.019509135
0001f0 0f 11 6d be 43 f3 91 bd e6 d0 dd 3d 45 b9 d2 bd
       -0.23151039 -0.071264766 0.1083086 -0.102892436
000200 d0 fa 6a 3d c6 ba b7 3d 44 68 20 bd 11 93 db bd
       0.0573681 0.08971171 -0.039161935 -0.1072141
000210 3c 1c f9 3c c8 db 19 bd 3e d4 48 bd ce 29 30 bc
       0.030408971 -0.037563115 -0.049030535 -0.0107521545
000220 81 10 1a 3c 52 47 35 bd 39 51 85 bb 0c a0 af 3d
       0.009403349 -0.04425747 -0.0040685204 0.085754484
000230 1c a4 c0 bc f4 bd 55 3d e8 46 38 3d 1d 83 ae 3c
       -0.023515753 0.052183107 0.044989496 0.021302754
000240 18 03 a3 3f 62 09 65 3f 31 0c 21 bf e0 06 0e 3f
       1.2735319 0.8946744 -0.6290923 0.5547924
000250 50 5a d2 3e 0b f4 81 bd c1 e0 29 be 48 95 e1 3c
       0.41084528 -0.063453756 -0.16589643 0.027537003
000260 aa a4 32 bd 99 9e de bd 17 a1 38 3e f8 6f ce be
       -0.043614067 -0.10870094 0.18030201 -0.403198
000270 bc 7a 81 be f2 32 2a be 47 d8 70 be 9c 6f 71 be
       -0.2528895 -0.16620997 -0.23520003 -0.23577732
000280 cf 5b 8c 3f 4c 93 51 3f 7b 66 81 3f a4 74 15 3e
       1.0965518 0.8186538 1.01094 0.14595276
000290 5b 53 32 bc 4b 01 d3 3d e2 0f b8 3f 61 8b 0c 40
       -0.010884131 0.10302981 1.4379847 2.196007
0002a0 85 24 07 c0 8d 84 23 3f 54 e9 46 3f 49 62 d6 bf
       -2.111604 0.6387413 0.7769978 -1.6748744
0002b0 c2 75 d9 3d c2 9c f9 3d 7b fa 37 bd 6e 7e db bd
       0.10618164 0.12188102 -0.04491661 -0.10717474
